…
I1127 14:16:22.169739  2966 solver.cpp:81] Creating training net from train_net file: /home/caffe/caffe/examples/myfile/myfile_nin/train.prototxt
I1127 14:16:22.171111  2966 net.cpp:58] Initializing net from parameters: 
state {
  phase: TRAIN
  level: 0
  stage: ""
}
layer {
  name: "Data1"
  type: "Data"
  top: "Data1"
  top: "Data2"
  transform_param {
    mirror: true
    crop_size: 114
    mean_file: "/home/caffe/caffe/examples/myfile/myfile_nin/mean.binaryproto"
  }
  data_param {
    source: "/home/caffe/caffe/examples/myfile/myfile_nin/img_train_lmdb"
    batch_size: 6
    backend: LMDB
  }
}
layer {
  name: "Convolution1"
  type: "Convolution"
  bottom: "Data1"
  top: "Convolution1"
  param {
    lr_mult: 0.1
    decay_mult: 1
  }
  param {
    lr_mult: 0.2
    decay_mult: 0
  }
  convolution_param {
    num_output: 64
    pad: 3
    kernel_size: 7
    stride: 2
    weight_filler {
      type: "xavier"
      std: 0.03
    }
  }
}
layer {
  name: "ReLU1"
  type: "ReLU"
  bottom: "Convolution1"
  top: "Convolution1"
}
layer {
  name: "Pooling1"
  type: "Pooling"
  bottom: "Convolution1"
  top: "Pooling1"
  pooling_param {
    pool: MAX
    kernel_size: 3
    stride: 2
  }
}
layer {
  name: "Convolution2"
  type: "Convolution"
  bottom: "Pooling1"
  top: "Convolution2"
  param {
    lr_mult: 0.1
    decay_mult: 1
  }
  param {
    lr_mult: 0.2
    decay_mult: 0
  }
  convolution_param {
    num_output: 192
    pad: 1
    kernel_size: 3
    stride: 1
    weight_filler {
      type: "xavier"
      std: 0.03
    }
  }
}
layer {
  name: "ReLU2"
  type: "ReLU"
  bottom: "Convolution2"
  top: "Convolution2"
}
layer {
  name: "Pooling2"
  type: "Pooling"
  bottom: "Convolution2"
  top: "Pooling2"
  pooling_param {
    pool: MAX
    kernel_size: 3
    stride: 2
  }
}
layer {
  name: "Convolution3"
  type: "Convolution"
  bottom: "Pooling2"
  top: "Convolution3"
  param {
    lr_mult: 0.1
    decay_mult: 1
  }
  param {
    lr_mult: 0.2
    decay_mult: 0
  }
  convolution_param {
    num_output: 96
    pad: 0
    kernel_size: 1
    stride: 1
    weight_filler {
      type: "xavier"
      std: 0.09
    }
  }
}
layer {
  name: "ReLU3"
  type: "ReLU"
  bottom: "Convolution3"
  top: "Convolution3"
}
layer {
  name: "Convolution4"
  type: "Convolution"
  bottom: "Convolution3"
  top: "Convolution4"
  param {
    lr_mult: 0.1
    decay_mult: 1
  }
  param {
    lr_mult: 0.2
    decay_mult: 0
  }
  convolution_param {
    num_output: 128
    pad: 1
    kernel_size: 3
    stride: 1
    weight_filler {
      type: "xavier"
      std: 0.03
    }
  }
}
layer {
  name: "ReLU4"
  type: "ReLU"
  bottom: "Convolution4"
  top: "Convolution4"
}
layer {
  name: "Convolution5"
  type: "Convolution"
  bottom: "Pooling2"
  top: "Convolution5"
  param {
    lr_mult: 0.1
    decay_mult: 1
  }
  param {
    lr_mult: 0.2
    decay_mult: 0
  }
  convolution_param {
    num_output: 16
    pad: 0
    kernel_size: 1
    stride: 1
    weight_filler {
      type: "xavier"
      std: 0.2
    }
  }
}
layer {
  name: "ReLU5"
  type: "ReLU"
  bottom: "Convolution5"
  top: "Convolution5"
}
layer {
  name: "Convolution6"
  type: "Convolution"
  bottom: "Convolution5"
  top: "Convolution6"
  param {
    lr_mult: 0.1
    decay_mult: 1
  }
  param {
    lr_mult: 0.2
    decay_mult: 0
  }
  convolution_param {
    num_output: 32
    pad: 2
    kernel_size: 5
    stride: 1
    weight_filler {
      type: "xavier"
      std: 0.03
    }
  }
}
layer {
  name: "ReLU6"
  type: "ReLU"
  bottom: "Convolution6"
  top: "Convolution6"
}
layer {
  name: "Pooling3"
  type: "Pooling"
  bottom: "Pooling2"
  top: "Pooling3"
  pooling_param {
    pool: MAX
    kernel_size: 3
    stride: 1
    pad: 1
  }
}
layer {
  name: "Convolution7"
  type: "Convolution"
  bottom: "Pooling3"
  top: "Convolution7"
  param {
    lr_mult: 0.1
    decay_mult: 1
  }
  param {
    lr_mult: 0.2
    decay_mult: 0
  }
  convolution_param {
    num_output: 32
    pad: 0
    kernel_size: 1
    stride: 1
    weight_filler {
      type: "xavier"
      std: 0.1
    }
  }
}
layer {
  name: "ReLU7"
  type: "ReLU"
  bottom: "Convolution7"
  top: "Convolution7"
}
layer {
  name: "Convolution8"
  type: "Convolution"
  bottom: "Pooling2"
  top: "Convolution8"
  param {
    lr_mult: 0.1
    decay_mult: 1
  }
  param {
    lr_mult: 0.2
    decay_mult: 0
  }
  convolution_param {
    num_output: 64
    pad: 0
    kernel_size: 1
    stride: 1
    weight_filler {
      type: "xavier"
      std: 0.03
    }
  }
}
layer {
  name: "ReLU8"
  type: "ReLU"
  bottom: "Convolution8"
  top: "Convolution8"
}
layer {
  name: "Concat1"
  type: "Concat"
  bottom: "Convolution4"
  bottom: "Convolution6"
  bottom: "Convolution7"
  bottom: "Convolution8"
  top: "Concat1"
}
layer {
  name: "Convolution9"
  type: "Convolution"
  bottom: "Concat1"
  top: "Convolution9"
  param {
    lr_mult: 1
    decay_mult: 1
  }
  param {
    lr_mult: 2
    decay_mult: 0
  }
  convolution_param {
    num_output: 128
    pad: 0
    kernel_size: 1
    stride: 1
    weight_filler {
      type: "xavier"
      std: 0.03
    }
  }
}
layer {
  name: "ReLU9"
  type: "ReLU"
  bottom: "Convolution9"
  top: "Convolution9"
}
layer {
  name: "Convolution10"
  type: "Convolution"
  bottom: "Concat1"
  top: "Convolution10"
  param {
    lr_mult: 1
    decay_mult: 1
  }
  param {
    lr_mult: 2
    decay_mult: 0
  }
  convolution_param {
    num_output: 128
    pad: 0
    kernel_size: 1
    stride: 1
    weight_filler {
      type: "xavier"
      std: 0.09
    }
  }
}
layer {
  name: "ReLU10"
  type: "ReLU"
  bottom: "Convolution10"
  top: "Convolution10"
}
layer {
  name: "Convolution11"
  type: "Convolution"
  bottom: "Convolution10"
  top: "Convolution11"
  param {
    lr_mult: 1
    decay_mult: 1
  }
  param {
    lr_mult: 2
    decay_mult: 0
  }
  convolution_param {
    num_output: 192
    pad: 1
    kernel_size: 3
    stride: 1
    weight_filler {
      type: "xavier"
      std: 0.03
    }
  }
}
layer {
  name: "ReLU11"
  type: "ReLU"
  bottom: "Convolution11"
  top: "Convolution11"
}
layer {
  name: "Convolution12"
  type: "Convolution"
  bottom: "Concat1"
  top: "Convolution12"
  param {
    lr_mult: 1
    decay_mult: 1
  }
  param {
    lr_mult: 2
    decay_mult: 0
  }
  convolution_param {
    num_output: 32
    pad: 0
    kernel_size: 1
    stride: 1
    weight_filler {
      type: "xavier"
      std: 0.2
    }
  }
}
layer {
  name: "ReLU12"
  type: "ReLU"
  bottom: "Convolution12"
  top: "Convolution12"
}
layer {
  name: "Convolution13"
  type: "Convolution"
  bottom: "Convolution12"
  top: "Convolution13"
  param {
    lr_mult: 1
    decay_mult: 1
  }
  param {
    lr_mult: 2
    decay_mult: 0
  }
  convolution_param {
    num_output: 96
    pad: 2
    kernel_size: 5
    stride: 1
    weight_filler {
      type: "xavier"
      std: 0.03
    }
  }
}
layer {
  name: "ReLU13"
  type: "ReLU"
  bottom: "Convolution13"
  top: "Convolution13"
}
layer {
  name: "Pooling4"
  type: "Pooling"
  bottom: "Concat1"
  top: "Pooling4"
  pooling_param {
    pool: MAX
    kernel_size: 3
    stride: 1
    pad: 1
  }
}
layer {
  name: "Convolution14"
  type: "Convolution"
  bottom: "Pooling4"
  top: "Convolution14"
  param {
    lr_mult: 1
    decay_mult: 1
  }
  param {
    lr_mult: 2
    decay_mult: 0
  }
  convolution_param {
    num_output: 64
    pad: 0
    kernel_size: 1
    stride: 1
    weight_filler {
      type: "xavier"
      std: 0.1
    }
  }
}
layer {
  name: "ReLU14"
  type: "ReLU"
  bottom: "Convolution14"
  top: "Convolution14"
}
layer {
  name: "Concat2"
  type: "Concat"
  bottom: "Convolution9"
  bottom: "Convolution11"
  bottom: "Convolution13"
  bottom: "Convolution14"
  top: "Concat2"
}
layer {
  name: "Pooling5"
  type: "Pooling"
  bottom: "Concat2"
  top: "Pooling5"
  pooling_param {
    pool: MAX
    kernel_size: 3
    stride: 2
  }
}
layer {
  name: "Convolution15"
  type: "Convolution"
  bottom: "Pooling5"
  top: "Convolution15"
  param {
    lr_mult: 1
    decay_mult: 1
  }
  param {
    lr_mult: 2
    decay_mult: 0
  }
  convolution_param {
    num_output: 192
    pad: 0
    kernel_size: 1
    stride: 1
    weight_filler {
      type: "xavier"
      std: 0.03
    }
  }
}
layer {
  name: "ReLU15"
  type: "ReLU"
  bottom: "Convolution15"
  top: "Convolution15"
}
layer {
  name: "Convolution16"
  type: "Convolution"
  bottom: "Pooling5"
  top: "Convolution16"
  param {
    lr_mult: 1
    decay_mult: 1
  }
  param {
    lr_mult: 2
    decay_mult: 0
  }
  convolution_param {
    num_output: 96
    pad: 0
    kernel_size: 1
    stride: 1
    weight_filler {
      type: "xavier"
      std: 0.09
    }
  }
}
layer {
  name: "ReLU16"
  type: "ReLU"
  bottom: "Convolution16"
  top: "Convolution16"
}
layer {
  name: "Convolution17"
  type: "Convolution"
  bottom: "Convolution16"
  top: "Convolution17"
  param {
    lr_mult: 1
    decay_mult: 1
  }
  param {
    lr_mult: 2
    decay_mult: 0
  }
  convolution_param {
    num_output: 208
    pad: 1
    kernel_size: 3
    stride: 1
    weight_filler {
      type: "xavier"
      std: 0.03
    }
  }
}
layer {
  name: "ReLU17"
  type: "ReLU"
  bottom: "Convolution17"
  top: "Convolution17"
}
layer {
  name: "Convolution18"
  type: "Convolution"
  bottom: "Pooling5"
  top: "Convolution18"
  param {
    lr_mult: 1
    decay_mult: 1
  }
  param {
    lr_mult: 2
    decay_mult: 0
  }
  convolution_param {
    num_output: 16
    pad: 0
    kernel_size: 1
    stride: 1
    weight_filler {
      type: "xavier"
      std: 0.2
    }
  }
}
layer {
  name: "ReLU18"
  type: "ReLU"
  bottom: "Convolution18"
  top: "Convolution18"
}
layer {
  name: "Convolution19"
  type: "Convolution"
  bottom: "Convolution18"
  top: "Convolution19"
  param {
    lr_mult: 1
    decay_mult: 1
  }
  param {
    lr_mult: 2
    decay_mult: 0
  }
  convolution_param {
    num_output: 48
    pad: 2
    kernel_size: 5
    stride: 1
    weight_filler {
      type: "xavier"
      std: 0.03
    }
  }
}
layer {
  name: "ReLU19"
  type: "ReLU"
  bottom: "Convolution19"
  top: "Convolution19"
}
layer {
  name: "Pooling6"
  type: "Pooling"
  bottom: "Pooling5"
  top: "Pooling6"
  pooling_param {
    pool: MAX
    kernel_size: 3
    stride: 1
    pad: 1
  }
}
layer {
  name: "Convolution20"
  type: "Convolution"
  bottom: "Pooling6"
  top: "Convolution20"
  param {
    lr_mult: 1
    decay_mult: 1
  }
  param {
    lr_mult: 2
    decay_mult: 0
  }
  convolution_param {
    num_output: 64
    pad: 0
    kernel_size: 1
    stride: 1
    weight_filler {
      type: "xavier"
      std: 0.1
    }
  }
}
layer {
  name: "ReLU20"
  type: "ReLU"
  bottom: "Convolution20"
  top: "Convolution20"
}
layer {
  name: "Concat3"
  type: "Concat"
  bottom: "Convolution15"
  bottom: "Convolution17"
  bottom: "Convolution19"
  bottom: "Convolution20"
  top: "Concat3"
}
layer {
  name: "Pooling7"
  type: "Pooling"
  bottom: "Concat3"
  top: "Pooling7"
  pooling_param {
    pool: AVE
    kernel_size: 7
    stride: 1
  }
}
layer {
  name: "InnerProduct1"
  type: "InnerProduct"
  bottom: "Pooling7"
  top: "InnerProduct1"
  param {
    lr_mult: 1
    decay_mult: 1
  }
  param {
    lr_mult: 2
    decay_mult: 0
  }
  inner_product_param {
    num_output: 4096
    weight_filler {
      type: "xavier"
    }
  }
}
layer {
  name: "ReLU21"
  type: "ReLU"
  bottom: "InnerProduct1"
  top: "InnerProduct1"
}
layer {
  name: "Dropout1"
  type: "Dropout"
  bottom: "InnerProduct1"
  top: "InnerProduct1"
  dropout_param {
    dropout_ratio: 0.4
  }
}
layer {
  name: "InnerProduct2"
  type: "InnerProduct"
  bottom: "InnerProduct1"
  top: "InnerProduct2"
  param {
    lr_mult: 10
    decay_mult: 1
  }
  param {
    lr_mult: 20
    decay_mult: 0
  }
  inner_product_param {
    num_output: 1024
    weight_filler {
      type: "xavier"
    }
  }
}
layer {
  name: "SoftmaxWithLoss1"
  type: "SoftmaxWithLoss"
  bottom: "InnerProduct2"
  bottom: "Data2"
  top: "SoftmaxWithLoss1"
}
I1127 14:16:22.176208  2966 layer_factory.hpp:77] Creating layer Data1
I1127 14:16:22.177980  2966 net.cpp:100] Creating Layer Data1
I1127 14:16:22.178010  2966 net.cpp:408] Data1 -> Data1
I1127 14:16:22.178033  2966 net.cpp:408] Data1 -> Data2
I1127 14:16:22.178052  2966 data_transformer.cpp:25] Loading mean file from: /home/caffe/caffe/examples/myfile/myfile_nin/mean.binaryproto
I1127 14:16:22.181252  2968 db_lmdb.cpp:35] Opened lmdb /home/caffe/caffe/examples/myfile/myfile_nin/img_train_lmdb
I1127 14:16:22.186825  2966 data_layer.cpp:41] output data size: 6,1,114,114
I1127 14:16:22.189600  2966 net.cpp:150] Setting up Data1
I1127 14:16:22.189648  2966 net.cpp:157] Top shape: 6 1 114 114 (77976)
I1127 14:16:22.189658  2966 net.cpp:157] Top shape: 6 (6)
I1127 14:16:22.189664  2966 net.cpp:165] Memory required for data: 311928
I1127 14:16:22.189674  2966 layer_factory.hpp:77] Creating layer Convolution1
I1127 14:16:22.189695  2966 net.cpp:100] Creating Layer Convolution1
I1127 14:16:22.189703  2966 net.cpp:434] Convolution1 <- Data1
I1127 14:16:22.189716  2966 net.cpp:408] Convolution1 -> Convolution1
I1127 14:16:22.191139  2966 net.cpp:150] Setting up Convolution1
I1127 14:16:22.198863  2966 net.cpp:157] Top shape: 6 64 57 57 (1247616)
I1127 14:16:22.198912  2966 net.cpp:165] Memory required for data: 5302392
I1127 14:16:22.198966  2966 layer_factory.hpp:77] Creating layer ReLU1
I1127 14:16:22.199012  2966 net.cpp:100] Creating Layer ReLU1
I1127 14:16:22.199053  2966 net.cpp:434] ReLU1 <- Convolution1
I1127 14:16:22.199092  2966 net.cpp:395] ReLU1 -> Convolution1 (in-place)
I1127 14:16:22.200044  2966 net.cpp:150] Setting up ReLU1
I1127 14:16:22.200057  2966 net.cpp:157] Top shape: 6 64 57 57 (1247616)
I1127 14:16:22.200060  2966 net.cpp:165] Memory required for data: 10292856
I1127 14:16:22.200064  2966 layer_factory.hpp:77] Creating layer Pooling1
I1127 14:16:22.200072  2966 net.cpp:100] Creating Layer Pooling1
I1127 14:16:22.200074  2966 net.cpp:434] Pooling1 <- Convolution1
I1127 14:16:22.200079  2966 net.cpp:408] Pooling1 -> Pooling1
I1127 14:16:22.200114  2966 net.cpp:150] Setting up Pooling1
I1127 14:16:22.200119  2966 net.cpp:157] Top shape: 6 64 28 28 (301056)
I1127 14:16:22.200121  2966 net.cpp:165] Memory required for data: 11497080
I1127 14:16:22.200124  2966 layer_factory.hpp:77] Creating layer Convolution2
I1127 14:16:22.200135  2966 net.cpp:100] Creating Layer Convolution2
I1127 14:16:22.200139  2966 net.cpp:434] Convolution2 <- Pooling1
I1127 14:16:22.200142  2966 net.cpp:408] Convolution2 -> Convolution2
I1127 14:16:22.201145  2966 net.cpp:150] Setting up Convolution2
I1127 14:16:22.201155  2966 net.cpp:157] Top shape: 6 192 28 28 (903168)
I1127 14:16:22.201158  2966 net.cpp:165] Memory required for data: 15109752
I1127 14:16:22.201165  2966 layer_factory.hpp:77] Creating layer ReLU2
I1127 14:16:22.201170  2966 net.cpp:100] Creating Layer ReLU2
I1127 14:16:22.201174  2966 net.cpp:434] ReLU2 <- Convolution2
I1127 14:16:22.201177  2966 net.cpp:395] ReLU2 -> Convolution2 (in-place)
I1127 14:16:22.201184  2966 net.cpp:150] Setting up ReLU2
I1127 14:16:22.201186  2966 net.cpp:157] Top shape: 6 192 28 28 (903168)
I1127 14:16:22.201189  2966 net.cpp:165] Memory required for data: 18722424
I1127 14:16:22.201191  2966 layer_factory.hpp:77] Creating layer Pooling2
I1127 14:16:22.201195  2966 net.cpp:100] Creating Layer Pooling2
I1127 14:16:22.201198  2966 net.cpp:434] Pooling2 <- Convolution2
I1127 14:16:22.201201  2966 net.cpp:408] Pooling2 -> Pooling2
I1127 14:16:22.201207  2966 net.cpp:150] Setting up Pooling2
I1127 14:16:22.201211  2966 net.cpp:157] Top shape: 6 192 14 14 (225792)
I1127 14:16:22.201213  2966 net.cpp:165] Memory required for data: 19625592
I1127 14:16:22.201216  2966 layer_factory.hpp:77] Creating layer Pooling2_Pooling2_0_split
I1127 14:16:22.201622  2966 net.cpp:100] Creating Layer Pooling2_Pooling2_0_split
I1127 14:16:22.201697  2966 net.cpp:434] Pooling2_Pooling2_0_split <- Pooling2
I1127 14:16:22.201740  2966 net.cpp:408] Pooling2_Pooling2_0_split -> Pooling2_Pooling2_0_split_0
I1127 14:16:22.201782  2966 net.cpp:408] Pooling2_Pooling2_0_split -> Pooling2_Pooling2_0_split_1
I1127 14:16:22.201824  2966 net.cpp:408] Pooling2_Pooling2_0_split -> Pooling2_Pooling2_0_split_2
I1127 14:16:22.201867  2966 net.cpp:408] Pooling2_Pooling2_0_split -> Pooling2_Pooling2_0_split_3
I1127 14:16:22.201910  2966 net.cpp:150] Setting up Pooling2_Pooling2_0_split
I1127 14:16:22.202059  2966 net.cpp:157] Top shape: 6 192 14 14 (225792)
I1127 14:16:22.202100  2966 net.cpp:157] Top shape: 6 192 14 14 (225792)
I1127 14:16:22.202185  2966 net.cpp:157] Top shape: 6 192 14 14 (225792)
I1127 14:16:22.202313  2966 net.cpp:157] Top shape: 6 192 14 14 (225792)
I1127 14:16:22.202354  2966 net.cpp:165] Memory required for data: 23238264
I1127 14:16:22.202409  2966 layer_factory.hpp:77] Creating layer Convolution3
I1127 14:16:22.202457  2966 net.cpp:100] Creating Layer Convolution3
I1127 14:16:22.202497  2966 net.cpp:434] Convolution3 <- Pooling2_Pooling2_0_split_0
I1127 14:16:22.202538  2966 net.cpp:408] Convolution3 -> Convolution3
I1127 14:16:22.202713  2966 net.cpp:150] Setting up Convolution3
I1127 14:16:22.202755  2966 net.cpp:157] Top shape: 6 96 14 14 (112896)
I1127 14:16:22.202781  2966 net.cpp:165] Memory required for data: 23689848
I1127 14:16:22.202792  2966 layer_factory.hpp:77] Creating layer ReLU3
I1127 14:16:22.202802  2966 net.cpp:100] Creating Layer ReLU3
I1127 14:16:22.202808  2966 net.cpp:434] ReLU3 <- Convolution3
I1127 14:16:22.202814  2966 net.cpp:395] ReLU3 -> Convolution3 (in-place)
I1127 14:16:22.202823  2966 net.cpp:150] Setting up ReLU3
I1127 14:16:22.202829  2966 net.cpp:157] Top shape: 6 96 14 14 (112896)
I1127 14:16:22.202834  2966 net.cpp:165] Memory required for data: 24141432
I1127 14:16:22.202839  2966 layer_factory.hpp:77] Creating layer Convolution4
I1127 14:16:22.202848  2966 net.cpp:100] Creating Layer Convolution4
I1127 14:16:22.202854  2966 net.cpp:434] Convolution4 <- Convolution3
I1127 14:16:22.202862  2966 net.cpp:408] Convolution4 -> Convolution4
I1127 14:16:22.203610  2966 net.cpp:150] Setting up Convolution4
I1127 14:16:22.203621  2966 net.cpp:157] Top shape: 6 128 14 14 (150528)
I1127 14:16:22.203626  2966 net.cpp:165] Memory required for data: 24743544
I1127 14:16:22.203634  2966 layer_factory.hpp:77] Creating layer ReLU4
I1127 14:16:22.203641  2966 net.cpp:100] Creating Layer ReLU4
I1127 14:16:22.203647  2966 net.cpp:434] ReLU4 <- Convolution4
I1127 14:16:22.203654  2966 net.cpp:395] ReLU4 -> Convolution4 (in-place)
I1127 14:16:22.203660  2966 net.cpp:150] Setting up ReLU4
I1127 14:16:22.203667  2966 net.cpp:157] Top shape: 6 128 14 14 (150528)
I1127 14:16:22.203672  2966 net.cpp:165] Memory required for data: 25345656
I1127 14:16:22.203677  2966 layer_factory.hpp:77] Creating layer Convolution5
I1127 14:16:22.203686  2966 net.cpp:100] Creating Layer Convolution5
I1127 14:16:22.205510  2966 net.cpp:434] Convolution5 <- Pooling2_Pooling2_0_split_1
I1127 14:16:22.205535  2966 net.cpp:408] Convolution5 -> Convolution5
I1127 14:16:22.205585  2966 net.cpp:150] Setting up Convolution5
I1127 14:16:22.205595  2966 net.cpp:157] Top shape: 6 16 14 14 (18816)
I1127 14:16:22.205600  2966 net.cpp:165] Memory required for data: 25420920
I1127 14:16:22.205610  2966 layer_factory.hpp:77] Creating layer ReLU5
I1127 14:16:22.205618  2966 net.cpp:100] Creating Layer ReLU5
I1127 14:16:22.205624  2966 net.cpp:434] ReLU5 <- Convolution5
I1127 14:16:22.205631  2966 net.cpp:395] ReLU5 -> Convolution5 (in-place)
I1127 14:16:22.205638  2966 net.cpp:150] Setting up ReLU5
I1127 14:16:22.205646  2966 net.cpp:157] Top shape: 6 16 14 14 (18816)
I1127 14:16:22.205651  2966 net.cpp:165] Memory required for data: 25496184
I1127 14:16:22.205656  2966 layer_factory.hpp:77] Creating layer Convolution6
I1127 14:16:22.205663  2966 net.cpp:100] Creating Layer Convolution6
I1127 14:16:22.205687  2966 net.cpp:434] Convolution6 <- Convolution5
I1127 14:16:22.205696  2966 net.cpp:408] Convolution6 -> Convolution6
I1127 14:16:22.205798  2966 net.cpp:150] Setting up Convolution6
I1127 14:16:22.205809  2966 net.cpp:157] Top shape: 6 32 14 14 (37632)
I1127 14:16:22.205816  2966 net.cpp:165] Memory required for data: 25646712
I1127 14:16:22.205823  2966 layer_factory.hpp:77] Creating layer ReLU6
I1127 14:16:22.205832  2966 net.cpp:100] Creating Layer ReLU6
I1127 14:16:22.205837  2966 net.cpp:434] ReLU6 <- Convolution6
I1127 14:16:22.205847  2966 net.cpp:395] ReLU6 -> Convolution6 (in-place)
I1127 14:16:22.205855  2966 net.cpp:150] Setting up ReLU6
I1127 14:16:22.205863  2966 net.cpp:157] Top shape: 6 32 14 14 (37632)
I1127 14:16:22.205868  2966 net.cpp:165] Memory required for data: 25797240
I1127 14:16:22.205874  2966 layer_factory.hpp:77] Creating layer Pooling3
I1127 14:16:22.205889  2966 net.cpp:100] Creating Layer Pooling3
I1127 14:16:22.205898  2966 net.cpp:434] Pooling3 <- Pooling2_Pooling2_0_split_2
I1127 14:16:22.205905  2966 net.cpp:408] Pooling3 -> Pooling3
I1127 14:16:22.205919  2966 net.cpp:150] Setting up Pooling3
I1127 14:16:22.205925  2966 net.cpp:157] Top shape: 6 192 14 14 (225792)
I1127 14:16:22.205930  2966 net.cpp:165] Memory required for data: 26700408
I1127 14:16:22.205936  2966 layer_factory.hpp:77] Creating layer Convolution7
I1127 14:16:22.205950  2966 net.cpp:100] Creating Layer Convolution7
I1127 14:16:22.205956  2966 net.cpp:434] Convolution7 <- Pooling3
I1127 14:16:22.205965  2966 net.cpp:408] Convolution7 -> Convolution7
I1127 14:16:22.206044  2966 net.cpp:150] Setting up Convolution7
I1127 14:16:22.206068  2966 net.cpp:157] Top shape: 6 32 14 14 (37632)
I1127 14:16:22.206073  2966 net.cpp:165] Memory required for data: 26850936
I1127 14:16:22.206082  2966 layer_factory.hpp:77] Creating layer ReLU7
I1127 14:16:22.206089  2966 net.cpp:100] Creating Layer ReLU7
I1127 14:16:22.206095  2966 net.cpp:434] ReLU7 <- Convolution7
I1127 14:16:22.206102  2966 net.cpp:395] ReLU7 -> Convolution7 (in-place)
I1127 14:16:22.206111  2966 net.cpp:150] Setting up ReLU7
I1127 14:16:22.206117  2966 net.cpp:157] Top shape: 6 32 14 14 (37632)
I1127 14:16:22.206123  2966 net.cpp:165] Memory required for data: 27001464
I1127 14:16:22.206128  2966 layer_factory.hpp:77] Creating layer Convolution8
I1127 14:16:22.206141  2966 net.cpp:100] Creating Layer Convolution8
I1127 14:16:22.206147  2966 net.cpp:434] Convolution8 <- Pooling2_Pooling2_0_split_3
I1127 14:16:22.206157  2966 net.cpp:408] Convolution8 -> Convolution8
I1127 14:16:22.206265  2966 net.cpp:150] Setting up Convolution8
I1127 14:16:22.206276  2966 net.cpp:157] Top shape: 6 64 14 14 (75264)
I1127 14:16:22.206281  2966 net.cpp:165] Memory required for data: 27302520
I1127 14:16:22.206288  2966 layer_factory.hpp:77] Creating layer ReLU8
I1127 14:16:22.206295  2966 net.cpp:100] Creating Layer ReLU8
I1127 14:16:22.206301  2966 net.cpp:434] ReLU8 <- Convolution8
I1127 14:16:22.206331  2966 net.cpp:395] ReLU8 -> Convolution8 (in-place)
I1127 14:16:22.206403  2966 net.cpp:150] Setting up ReLU8
I1127 14:16:22.206415  2966 net.cpp:157] Top shape: 6 64 14 14 (75264)
I1127 14:16:22.206421  2966 net.cpp:165] Memory required for data: 27603576
I1127 14:16:22.206444  2966 layer_factory.hpp:77] Creating layer Concat1
I1127 14:16:22.206466  2966 net.cpp:100] Creating Layer Concat1
I1127 14:16:22.206473  2966 net.cpp:434] Concat1 <- Convolution4
I1127 14:16:22.206480  2966 net.cpp:434] Concat1 <- Convolution6
I1127 14:16:22.206486  2966 net.cpp:434] Concat1 <- Convolution7
I1127 14:16:22.206492  2966 net.cpp:434] Concat1 <- Convolution8
I1127 14:16:22.206501  2966 net.cpp:408] Concat1 -> Concat1
I1127 14:16:22.206514  2966 net.cpp:150] Setting up Concat1
I1127 14:16:22.206521  2966 net.cpp:157] Top shape: 6 256 14 14 (301056)
I1127 14:16:22.206527  2966 net.cpp:165] Memory required for data: 28807800
I1127 14:16:22.206532  2966 layer_factory.hpp:77] Creating layer Concat1_Concat1_0_split
I1127 14:16:22.206540  2966 net.cpp:100] Creating Layer Concat1_Concat1_0_split
I1127 14:16:22.206562  2966 net.cpp:434] Concat1_Concat1_0_split <- Concat1
I1127 14:16:22.206570  2966 net.cpp:408] Concat1_Concat1_0_split -> Concat1_Concat1_0_split_0
I1127 14:16:22.206578  2966 net.cpp:408] Concat1_Concat1_0_split -> Concat1_Concat1_0_split_1
I1127 14:16:22.206588  2966 net.cpp:408] Concat1_Concat1_0_split -> Concat1_Concat1_0_split_2
I1127 14:16:22.206595  2966 net.cpp:408] Concat1_Concat1_0_split -> Concat1_Concat1_0_split_3
I1127 14:16:22.206606  2966 net.cpp:150] Setting up Concat1_Concat1_0_split
I1127 14:16:22.206614  2966 net.cpp:157] Top shape: 6 256 14 14 (301056)
I1127 14:16:22.206619  2966 net.cpp:157] Top shape: 6 256 14 14 (301056)
I1127 14:16:22.206625  2966 net.cpp:157] Top shape: 6 256 14 14 (301056)
I1127 14:16:22.206632  2966 net.cpp:157] Top shape: 6 256 14 14 (301056)
I1127 14:16:22.206636  2966 net.cpp:165] Memory required for data: 33624696
I1127 14:16:22.206642  2966 layer_factory.hpp:77] Creating layer Convolution9
I1127 14:16:22.206655  2966 net.cpp:100] Creating Layer Convolution9
I1127 14:16:22.206660  2966 net.cpp:434] Convolution9 <- Concat1_Concat1_0_split_0
I1127 14:16:22.206667  2966 net.cpp:408] Convolution9 -> Convolution9
I1127 14:16:22.206951  2966 net.cpp:150] Setting up Convolution9
I1127 14:16:22.206960  2966 net.cpp:157] Top shape: 6 128 14 14 (150528)
I1127 14:16:22.206965  2966 net.cpp:165] Memory required for data: 34226808
I1127 14:16:22.206976  2966 layer_factory.hpp:77] Creating layer ReLU9
I1127 14:16:22.207000  2966 net.cpp:100] Creating Layer ReLU9
I1127 14:16:22.207005  2966 net.cpp:434] ReLU9 <- Convolution9
I1127 14:16:22.207010  2966 net.cpp:395] ReLU9 -> Convolution9 (in-place)
I1127 14:16:22.207018  2966 net.cpp:150] Setting up ReLU9
I1127 14:16:22.207025  2966 net.cpp:157] Top shape: 6 128 14 14 (150528)
I1127 14:16:22.207029  2966 net.cpp:165] Memory required for data: 34828920
I1127 14:16:22.207034  2966 layer_factory.hpp:77] Creating layer Convolution10
I1127 14:16:22.207043  2966 net.cpp:100] Creating Layer Convolution10
I1127 14:16:22.207049  2966 net.cpp:434] Convolution10 <- Concat1_Concat1_0_split_1
I1127 14:16:22.207073  2966 net.cpp:408] Convolution10 -> Convolution10
I1127 14:16:22.207350  2966 net.cpp:150] Setting up Convolution10
I1127 14:16:22.207360  2966 net.cpp:157] Top shape: 6 128 14 14 (150528)
I1127 14:16:22.207365  2966 net.cpp:165] Memory required for data: 35431032
I1127 14:16:22.207373  2966 layer_factory.hpp:77] Creating layer ReLU10
I1127 14:16:22.207379  2966 net.cpp:100] Creating Layer ReLU10
I1127 14:16:22.207386  2966 net.cpp:434] ReLU10 <- Convolution10
I1127 14:16:22.207391  2966 net.cpp:395] ReLU10 -> Convolution10 (in-place)
I1127 14:16:22.207398  2966 net.cpp:150] Setting up ReLU10
I1127 14:16:22.207404  2966 net.cpp:157] Top shape: 6 128 14 14 (150528)
I1127 14:16:22.207409  2966 net.cpp:165] Memory required for data: 36033144
I1127 14:16:22.207414  2966 layer_factory.hpp:77] Creating layer Convolution11
I1127 14:16:22.207422  2966 net.cpp:100] Creating Layer Convolution11
I1127 14:16:22.209844  2966 net.cpp:434] Convolution11 <- Convolution10
I1127 14:16:22.209856  2966 net.cpp:408] Convolution11 -> Convolution11
I1127 14:16:22.211386  2966 net.cpp:150] Setting up Convolution11
I1127 14:16:22.211397  2966 net.cpp:157] Top shape: 6 192 14 14 (225792)
I1127 14:16:22.211402  2966 net.cpp:165] Memory required for data: 36936312
I1127 14:16:22.211410  2966 layer_factory.hpp:77] Creating layer ReLU11
I1127 14:16:22.211416  2966 net.cpp:100] Creating Layer ReLU11
I1127 14:16:22.211422  2966 net.cpp:434] ReLU11 <- Convolution11
I1127 14:16:22.211428  2966 net.cpp:395] ReLU11 -> Convolution11 (in-place)
I1127 14:16:22.211436  2966 net.cpp:150] Setting up ReLU11
I1127 14:16:22.211441  2966 net.cpp:157] Top shape: 6 192 14 14 (225792)
I1127 14:16:22.211447  2966 net.cpp:165] Memory required for data: 37839480
I1127 14:16:22.211452  2966 layer_factory.hpp:77] Creating layer Convolution12
I1127 14:16:22.211458  2966 net.cpp:100] Creating Layer Convolution12
I1127 14:16:22.211463  2966 net.cpp:434] Convolution12 <- Concat1_Concat1_0_split_2
I1127 14:16:22.211480  2966 net.cpp:408] Convolution12 -> Convolution12
I1127 14:16:22.211547  2966 net.cpp:150] Setting up Convolution12
I1127 14:16:22.211558  2966 net.cpp:157] Top shape: 6 32 14 14 (37632)
I1127 14:16:22.211563  2966 net.cpp:165] Memory required for data: 37990008
I1127 14:16:22.211570  2966 layer_factory.hpp:77] Creating layer ReLU12
I1127 14:16:22.211576  2966 net.cpp:100] Creating Layer ReLU12
I1127 14:16:22.211581  2966 net.cpp:434] ReLU12 <- Convolution12
I1127 14:16:22.211587  2966 net.cpp:395] ReLU12 -> Convolution12 (in-place)
I1127 14:16:22.211594  2966 net.cpp:150] Setting up ReLU12
I1127 14:16:22.211601  2966 net.cpp:157] Top shape: 6 32 14 14 (37632)
I1127 14:16:22.211604  2966 net.cpp:165] Memory required for data: 38140536
I1127 14:16:22.211609  2966 layer_factory.hpp:77] Creating layer Convolution13
I1127 14:16:22.211617  2966 net.cpp:100] Creating Layer Convolution13
I1127 14:16:22.211623  2966 net.cpp:434] Convolution13 <- Convolution12
I1127 14:16:22.211630  2966 net.cpp:408] Convolution13 -> Convolution13
I1127 14:16:22.212141  2966 net.cpp:150] Setting up Convolution13
I1127 14:16:22.212149  2966 net.cpp:157] Top shape: 6 96 14 14 (112896)
I1127 14:16:22.212154  2966 net.cpp:165] Memory required for data: 38592120
I1127 14:16:22.212162  2966 layer_factory.hpp:77] Creating layer ReLU13
I1127 14:16:22.212170  2966 net.cpp:100] Creating Layer ReLU13
I1127 14:16:22.212175  2966 net.cpp:434] ReLU13 <- Convolution13
I1127 14:16:22.212182  2966 net.cpp:395] ReLU13 -> Convolution13 (in-place)
I1127 14:16:22.212188  2966 net.cpp:150] Setting up ReLU13
I1127 14:16:22.212194  2966 net.cpp:157] Top shape: 6 96 14 14 (112896)
I1127 14:16:22.212199  2966 net.cpp:165] Memory required for data: 39043704
I1127 14:16:22.212222  2966 layer_factory.hpp:77] Creating layer Pooling4
I1127 14:16:22.212260  2966 net.cpp:100] Creating Layer Pooling4
I1127 14:16:22.212266  2966 net.cpp:434] Pooling4 <- Concat1_Concat1_0_split_3
I1127 14:16:22.212275  2966 net.cpp:408] Pooling4 -> Pooling4
I1127 14:16:22.212283  2966 net.cpp:150] Setting up Pooling4
I1127 14:16:22.212290  2966 net.cpp:157] Top shape: 6 256 14 14 (301056)
I1127 14:16:22.212294  2966 net.cpp:165] Memory required for data: 40247928
I1127 14:16:22.212299  2966 layer_factory.hpp:77] Creating layer Convolution14
I1127 14:16:22.212308  2966 net.cpp:100] Creating Layer Convolution14
I1127 14:16:22.212313  2966 net.cpp:434] Convolution14 <- Pooling4
I1127 14:16:22.212321  2966 net.cpp:408] Convolution14 -> Convolution14
I1127 14:16:22.212440  2966 net.cpp:150] Setting up Convolution14
I1127 14:16:22.214354  2966 net.cpp:157] Top shape: 6 64 14 14 (75264)
I1127 14:16:22.214362  2966 net.cpp:165] Memory required for data: 40548984
I1127 14:16:22.214370  2966 layer_factory.hpp:77] Creating layer ReLU14
I1127 14:16:22.214378  2966 net.cpp:100] Creating Layer ReLU14
I1127 14:16:22.214385  2966 net.cpp:434] ReLU14 <- Convolution14
I1127 14:16:22.214390  2966 net.cpp:395] ReLU14 -> Convolution14 (in-place)
I1127 14:16:22.214398  2966 net.cpp:150] Setting up ReLU14
I1127 14:16:22.214404  2966 net.cpp:157] Top shape: 6 64 14 14 (75264)
I1127 14:16:22.214409  2966 net.cpp:165] Memory required for data: 40850040
I1127 14:16:22.214414  2966 layer_factory.hpp:77] Creating layer Concat2
I1127 14:16:22.214422  2966 net.cpp:100] Creating Layer Concat2
I1127 14:16:22.214428  2966 net.cpp:434] Concat2 <- Convolution9
I1127 14:16:22.214433  2966 net.cpp:434] Concat2 <- Convolution11
I1127 14:16:22.214439  2966 net.cpp:434] Concat2 <- Convolution13
I1127 14:16:22.214445  2966 net.cpp:434] Concat2 <- Convolution14
I1127 14:16:22.214452  2966 net.cpp:408] Concat2 -> Concat2
I1127 14:16:22.214459  2966 net.cpp:150] Setting up Concat2
I1127 14:16:22.214465  2966 net.cpp:157] Top shape: 6 480 14 14 (564480)
I1127 14:16:22.214470  2966 net.cpp:165] Memory required for data: 43107960
I1127 14:16:22.214475  2966 layer_factory.hpp:77] Creating layer Pooling5
I1127 14:16:22.214483  2966 net.cpp:100] Creating Layer Pooling5
I1127 14:16:22.214488  2966 net.cpp:434] Pooling5 <- Concat2
I1127 14:16:22.214504  2966 net.cpp:408] Pooling5 -> Pooling5
I1127 14:16:22.214514  2966 net.cpp:150] Setting up Pooling5
I1127 14:16:22.214519  2966 net.cpp:157] Top shape: 6 480 7 7 (141120)
I1127 14:16:22.214524  2966 net.cpp:165] Memory required for data: 43672440
I1127 14:16:22.214529  2966 layer_factory.hpp:77] Creating layer Pooling5_Pooling5_0_split
I1127 14:16:22.214535  2966 net.cpp:100] Creating Layer Pooling5_Pooling5_0_split
I1127 14:16:22.214541  2966 net.cpp:434] Pooling5_Pooling5_0_split <- Pooling5
I1127 14:16:22.214547  2966 net.cpp:408] Pooling5_Pooling5_0_split -> Pooling5_Pooling5_0_split_0
I1127 14:16:22.214555  2966 net.cpp:408] Pooling5_Pooling5_0_split -> Pooling5_Pooling5_0_split_1
I1127 14:16:22.214565  2966 net.cpp:408] Pooling5_Pooling5_0_split -> Pooling5_Pooling5_0_split_2
I1127 14:16:22.214572  2966 net.cpp:408] Pooling5_Pooling5_0_split -> Pooling5_Pooling5_0_split_3
I1127 14:16:22.214581  2966 net.cpp:150] Setting up Pooling5_Pooling5_0_split
I1127 14:16:22.214586  2966 net.cpp:157] Top shape: 6 480 7 7 (141120)
I1127 14:16:22.214593  2966 net.cpp:157] Top shape: 6 480 7 7 (141120)
I1127 14:16:22.214599  2966 net.cpp:157] Top shape: 6 480 7 7 (141120)
I1127 14:16:22.214604  2966 net.cpp:157] Top shape: 6 480 7 7 (141120)
I1127 14:16:22.214609  2966 net.cpp:165] Memory required for data: 45930360
I1127 14:16:22.214614  2966 layer_factory.hpp:77] Creating layer Convolution15
I1127 14:16:22.214622  2966 net.cpp:100] Creating Layer Convolution15
I1127 14:16:22.214627  2966 net.cpp:434] Convolution15 <- Pooling5_Pooling5_0_split_0
I1127 14:16:22.214635  2966 net.cpp:408] Convolution15 -> Convolution15
I1127 14:16:22.215315  2966 net.cpp:150] Setting up Convolution15
I1127 14:16:22.215328  2966 net.cpp:157] Top shape: 6 192 7 7 (56448)
I1127 14:16:22.215333  2966 net.cpp:165] Memory required for data: 46156152
I1127 14:16:22.215340  2966 layer_factory.hpp:77] Creating layer ReLU15
I1127 14:16:22.215348  2966 net.cpp:100] Creating Layer ReLU15
I1127 14:16:22.215353  2966 net.cpp:434] ReLU15 <- Convolution15
I1127 14:16:22.215360  2966 net.cpp:395] ReLU15 -> Convolution15 (in-place)
I1127 14:16:22.215368  2966 net.cpp:150] Setting up ReLU15
I1127 14:16:22.215374  2966 net.cpp:157] Top shape: 6 192 7 7 (56448)
I1127 14:16:22.215379  2966 net.cpp:165] Memory required for data: 46381944
I1127 14:16:22.215384  2966 layer_factory.hpp:77] Creating layer Convolution16
I1127 14:16:22.215392  2966 net.cpp:100] Creating Layer Convolution16
I1127 14:16:22.215397  2966 net.cpp:434] Convolution16 <- Pooling5_Pooling5_0_split_1
I1127 14:16:22.215405  2966 net.cpp:408] Convolution16 -> Convolution16
I1127 14:16:22.215720  2966 net.cpp:150] Setting up Convolution16
I1127 14:16:22.215728  2966 net.cpp:157] Top shape: 6 96 7 7 (28224)
I1127 14:16:22.215734  2966 net.cpp:165] Memory required for data: 46494840
I1127 14:16:22.215740  2966 layer_factory.hpp:77] Creating layer ReLU16
I1127 14:16:22.215746  2966 net.cpp:100] Creating Layer ReLU16
I1127 14:16:22.215751  2966 net.cpp:434] ReLU16 <- Convolution16
I1127 14:16:22.215757  2966 net.cpp:395] ReLU16 -> Convolution16 (in-place)
I1127 14:16:22.215764  2966 net.cpp:150] Setting up ReLU16
I1127 14:16:22.215770  2966 net.cpp:157] Top shape: 6 96 7 7 (28224)
I1127 14:16:22.215775  2966 net.cpp:165] Memory required for data: 46607736
I1127 14:16:22.215780  2966 layer_factory.hpp:77] Creating layer Convolution17
I1127 14:16:22.215786  2966 net.cpp:100] Creating Layer Convolution17
I1127 14:16:22.215791  2966 net.cpp:434] Convolution17 <- Convolution16
I1127 14:16:22.229843  2966 net.cpp:408] Convolution17 -> Convolution17
I1127 14:16:22.231119  2966 net.cpp:150] Setting up Convolution17
I1127 14:16:22.231130  2966 net.cpp:157] Top shape: 6 208 7 7 (61152)
I1127 14:16:22.231133  2966 net.cpp:165] Memory required for data: 46852344
I1127 14:16:22.231144  2966 layer_factory.hpp:77] Creating layer ReLU17
I1127 14:16:22.231150  2966 net.cpp:100] Creating Layer ReLU17
I1127 14:16:22.231154  2966 net.cpp:434] ReLU17 <- Convolution17
I1127 14:16:22.231170  2966 net.cpp:395] ReLU17 -> Convolution17 (in-place)
I1127 14:16:22.231178  2966 net.cpp:150] Setting up ReLU17
I1127 14:16:22.231181  2966 net.cpp:157] Top shape: 6 208 7 7 (61152)
I1127 14:16:22.231184  2966 net.cpp:165] Memory required for data: 47096952
I1127 14:16:22.231186  2966 layer_factory.hpp:77] Creating layer Convolution18
I1127 14:16:22.231192  2966 net.cpp:100] Creating Layer Convolution18
I1127 14:16:22.231196  2966 net.cpp:434] Convolution18 <- Pooling5_Pooling5_0_split_2
I1127 14:16:22.231200  2966 net.cpp:408] Convolution18 -> Convolution18
I1127 14:16:22.231261  2966 net.cpp:150] Setting up Convolution18
I1127 14:16:22.231266  2966 net.cpp:157] Top shape: 6 16 7 7 (4704)
I1127 14:16:22.231267  2966 net.cpp:165] Memory required for data: 47115768
I1127 14:16:22.231271  2966 layer_factory.hpp:77] Creating layer ReLU18
I1127 14:16:22.231276  2966 net.cpp:100] Creating Layer ReLU18
I1127 14:16:22.231278  2966 net.cpp:434] ReLU18 <- Convolution18
I1127 14:16:22.231282  2966 net.cpp:395] ReLU18 -> Convolution18 (in-place)
I1127 14:16:22.231287  2966 net.cpp:150] Setting up ReLU18
I1127 14:16:22.231290  2966 net.cpp:157] Top shape: 6 16 7 7 (4704)
I1127 14:16:22.231292  2966 net.cpp:165] Memory required for data: 47134584
I1127 14:16:22.231295  2966 layer_factory.hpp:77] Creating layer Convolution19
I1127 14:16:22.231300  2966 net.cpp:100] Creating Layer Convolution19
I1127 14:16:22.231303  2966 net.cpp:434] Convolution19 <- Convolution18
I1127 14:16:22.231308  2966 net.cpp:408] Convolution19 -> Convolution19
I1127 14:16:22.231494  2966 net.cpp:150] Setting up Convolution19
I1127 14:16:22.231513  2966 net.cpp:157] Top shape: 6 48 7 7 (14112)
I1127 14:16:22.231516  2966 net.cpp:165] Memory required for data: 47191032
I1127 14:16:22.231521  2966 layer_factory.hpp:77] Creating layer ReLU19
I1127 14:16:22.231524  2966 net.cpp:100] Creating Layer ReLU19
I1127 14:16:22.231528  2966 net.cpp:434] ReLU19 <- Convolution19
I1127 14:16:22.231533  2966 net.cpp:395] ReLU19 -> Convolution19 (in-place)
I1127 14:16:22.231536  2966 net.cpp:150] Setting up ReLU19
I1127 14:16:22.231539  2966 net.cpp:157] Top shape: 6 48 7 7 (14112)
I1127 14:16:22.231542  2966 net.cpp:165] Memory required for data: 47247480
I1127 14:16:22.231544  2966 layer_factory.hpp:77] Creating layer Pooling6
I1127 14:16:22.231549  2966 net.cpp:100] Creating Layer Pooling6
I1127 14:16:22.231552  2966 net.cpp:434] Pooling6 <- Pooling5_Pooling5_0_split_3
I1127 14:16:22.231561  2966 net.cpp:408] Pooling6 -> Pooling6
I1127 14:16:22.231570  2966 net.cpp:150] Setting up Pooling6
I1127 14:16:22.231572  2966 net.cpp:157] Top shape: 6 480 7 7 (141120)
I1127 14:16:22.231575  2966 net.cpp:165] Memory required for data: 47811960
I1127 14:16:22.231577  2966 layer_factory.hpp:77] Creating layer Convolution20
I1127 14:16:22.231585  2966 net.cpp:100] Creating Layer Convolution20
I1127 14:16:22.231586  2966 net.cpp:434] Convolution20 <- Pooling6
I1127 14:16:22.231592  2966 net.cpp:408] Convolution20 -> Convolution20
I1127 14:16:22.231801  2966 net.cpp:150] Setting up Convolution20
I1127 14:16:22.231806  2966 net.cpp:157] Top shape: 6 64 7 7 (18816)
I1127 14:16:22.231808  2966 net.cpp:165] Memory required for data: 47887224
I1127 14:16:22.231813  2966 layer_factory.hpp:77] Creating layer ReLU20
I1127 14:16:22.231817  2966 net.cpp:100] Creating Layer ReLU20
I1127 14:16:22.231820  2966 net.cpp:434] ReLU20 <- Convolution20
I1127 14:16:22.231824  2966 net.cpp:395] ReLU20 -> Convolution20 (in-place)
I1127 14:16:22.231827  2966 net.cpp:150] Setting up ReLU20
I1127 14:16:22.231832  2966 net.cpp:157] Top shape: 6 64 7 7 (18816)
I1127 14:16:22.231833  2966 net.cpp:165] Memory required for data: 47962488
I1127 14:16:22.231837  2966 layer_factory.hpp:77] Creating layer Concat3
I1127 14:16:22.231840  2966 net.cpp:100] Creating Layer Concat3
I1127 14:16:22.231842  2966 net.cpp:434] Concat3 <- Convolution15
I1127 14:16:22.234550  2966 net.cpp:434] Concat3 <- Convolution17
I1127 14:16:22.234566  2966 net.cpp:434] Concat3 <- Convolution19
I1127 14:16:22.234573  2966 net.cpp:434] Concat3 <- Convolution20
I1127 14:16:22.234606  2966 net.cpp:408] Concat3 -> Concat3
I1127 14:16:22.234622  2966 net.cpp:150] Setting up Concat3
I1127 14:16:22.234632  2966 net.cpp:157] Top shape: 6 512 7 7 (150528)
I1127 14:16:22.234637  2966 net.cpp:165] Memory required for data: 48564600
I1127 14:16:22.234642  2966 layer_factory.hpp:77] Creating layer Pooling7
I1127 14:16:22.234650  2966 net.cpp:100] Creating Layer Pooling7
I1127 14:16:22.234657  2966 net.cpp:434] Pooling7 <- Concat3
I1127 14:16:22.234664  2966 net.cpp:408] Pooling7 -> Pooling7
I1127 14:16:22.234680  2966 net.cpp:150] Setting up Pooling7
I1127 14:16:22.234688  2966 net.cpp:157] Top shape: 6 512 1 1 (3072)
I1127 14:16:22.234694  2966 net.cpp:165] Memory required for data: 48576888
I1127 14:16:22.234699  2966 layer_factory.hpp:77] Creating layer InnerProduct1
I1127 14:16:22.234715  2966 net.cpp:100] Creating Layer InnerProduct1
I1127 14:16:22.234720  2966 net.cpp:434] InnerProduct1 <- Pooling7
I1127 14:16:22.234729  2966 net.cpp:408] InnerProduct1 -> InnerProduct1
I1127 14:16:22.257145  2966 net.cpp:150] Setting up InnerProduct1
I1127 14:16:22.265610  2966 net.cpp:157] Top shape: 6 4096 (24576)
I1127 14:16:22.265625  2966 net.cpp:165] Memory required for data: 48675192
I1127 14:16:22.265637  2966 layer_factory.hpp:77] Creating layer ReLU21
I1127 14:16:22.265650  2966 net.cpp:100] Creating Layer ReLU21
I1127 14:16:22.265656  2966 net.cpp:434] ReLU21 <- InnerProduct1
I1127 14:16:22.265663  2966 net.cpp:395] ReLU21 -> InnerProduct1 (in-place)
I1127 14:16:22.265676  2966 net.cpp:150] Setting up ReLU21
I1127 14:16:22.265681  2966 net.cpp:157] Top shape: 6 4096 (24576)
I1127 14:16:22.265686  2966 net.cpp:165] Memory required for data: 48773496
I1127 14:16:22.265692  2966 layer_factory.hpp:77] Creating layer Dropout1
I1127 14:16:22.265699  2966 net.cpp:100] Creating Layer Dropout1
I1127 14:16:22.265705  2966 net.cpp:434] Dropout1 <- InnerProduct1
I1127 14:16:22.265714  2966 net.cpp:395] Dropout1 -> InnerProduct1 (in-place)
I1127 14:16:22.265733  2966 net.cpp:150] Setting up Dropout1
I1127 14:16:22.265739  2966 net.cpp:157] Top shape: 6 4096 (24576)
I1127 14:16:22.265745  2966 net.cpp:165] Memory required for data: 48871800
I1127 14:16:22.265750  2966 layer_factory.hpp:77] Creating layer InnerProduct2
I1127 14:16:22.265758  2966 net.cpp:100] Creating Layer InnerProduct2
I1127 14:16:22.265763  2966 net.cpp:434] InnerProduct2 <- InnerProduct1
I1127 14:16:22.265770  2966 net.cpp:408] InnerProduct2 -> InnerProduct2
I1127 14:16:22.341938  2966 net.cpp:150] Setting up InnerProduct2
I1127 14:16:22.345587  2966 net.cpp:157] Top shape: 6 1024 (6144)
I1127 14:16:22.345636  2966 net.cpp:165] Memory required for data: 48896376
I1127 14:16:22.345682  2966 layer_factory.hpp:77] Creating layer SoftmaxWithLoss1
I1127 14:16:22.349133  2966 net.cpp:100] Creating Layer SoftmaxWithLoss1
I1127 14:16:22.349148  2966 net.cpp:434] SoftmaxWithLoss1 <- InnerProduct2
I1127 14:16:22.349153  2966 net.cpp:434] SoftmaxWithLoss1 <- Data2
I1127 14:16:22.349160  2966 net.cpp:408] SoftmaxWithLoss1 -> SoftmaxWithLoss1
…
I1127 14:16:22.351076  2966 solver.cpp:181] Creating test net (#0) specified by test_net file: /home/caffe/caffe/examples/myfile/myfile_nin/val.prototxt
I1127 14:16:22.351372  2966 net.cpp:58] Initializing net from parameters: 
state {
  phase: TEST
}
layer {
  name: "Data1"
  type: "Data"
  top: "Data1"
  top: "Data2"
  transform_param {
    mirror: false
    crop_size: 114
    mean_file: "/home/caffe/caffe/examples/myfile/myfile_nin/mean.binaryproto"
  }
  data_param {
    source: "/home/caffe/caffe/examples/myfile/myfile_nin/img_test_lmdb"
    batch_size: 4
    backend: LMDB
  }
}
layer {
  name: "Convolution1"
  type: "Convolution"
  bottom: "Data1"
  top: "Convolution1"
  param {
    lr_mult: 0.1
    decay_mult: 1
  }
  param {
    lr_mult: 0.2
    decay_mult: 0
  }
  convolution_param {
    num_output: 64
    pad: 3
    kernel_size: 7
    stride: 2
    weight_filler {
      type: "xavier"
      std: 0.03
    }
  }
}
layer {
  name: "ReLU1"
  type: "ReLU"
  bottom: "Convolution1"
  top: "Convolution1"
}
layer {
  name: "Pooling1"
  type: "Pooling"
  bottom: "Convolution1"
  top: "Pooling1"
  pooling_param {
    pool: MAX
    kernel_size: 3
    stride: 2
  }
}
layer {
  name: "Convolution2"
  type: "Convolution"
  bottom: "Pooling1"
  top: "Convolution2"
  param {
    lr_mult: 0.1
    decay_mult: 1
  }
  param {
    lr_mult: 0.2
    decay_mult: 0
  }
  convolution_param {
    num_output: 192
    pad: 1
    kernel_size: 3
    stride: 1
    weight_filler {
      type: "xavier"
      std: 0.03
    }
  }
}
layer {
  name: "ReLU2"
  type: "ReLU"
  bottom: "Convolution2"
  top: "Convolution2"
}
layer {
  name: "Pooling2"
  type: "Pooling"
  bottom: "Convolution2"
  top: "Pooling2"
  pooling_param {
    pool: MAX
    kernel_size: 3
    stride: 2
  }
}
layer {
  name: "Convolution3"
  type: "Convolution"
  bottom: "Pooling2"
  top: "Convolution3"
  param {
    lr_mult: 0.1
    decay_mult: 1
  }
  param {
    lr_mult: 0.2
    decay_mult: 0
  }
  convolution_param {
    num_output: 96
    pad: 0
    kernel_size: 1
    stride: 1
    weight_filler {
      type: "xavier"
      std: 0.09
    }
  }
}
layer {
  name: "ReLU3"
  type: "ReLU"
  bottom: "Convolution3"
  top: "Convolution3"
}
layer {
  name: "Convolution4"
  type: "Convolution"
  bottom: "Convolution3"
  top: "Convolution4"
  param {
    lr_mult: 0.1
    decay_mult: 1
  }
  param {
    lr_mult: 0.2
    decay_mult: 0
  }
  convolution_param {
    num_output: 128
    pad: 1
    kernel_size: 3
    stride: 1
    weight_filler {
      type: "xavier"
      std: 0.03
    }
  }
}
layer {
  name: "ReLU4"
  type: "ReLU"
  bottom: "Convolution4"
  top: "Convolution4"
}
layer {
  name: "Convolution5"
  type: "Convolution"
  bottom: "Pooling2"
  top: "Convolution5"
  param {
    lr_mult: 0.1
    decay_mult: 1
  }
  param {
    lr_mult: 0.2
    decay_mult: 0
  }
  convolution_param {
    num_output: 16
    pad: 0
    kernel_size: 1
    stride: 1
    weight_filler {
      type: "xavier"
      std: 0.2
    }
  }
}
layer {
  name: "ReLU5"
  type: "ReLU"
  bottom: "Convolution5"
  top: "Convolution5"
}
layer {
  name: "Convolution6"
  type: "Convolution"
  bottom: "Convolution5"
  top: "Convolution6"
  param {
    lr_mult: 0.1
    decay_mult: 1
  }
  param {
    lr_mult: 0.2
    decay_mult: 0
  }
  convolution_param {
    num_output: 32
    pad: 2
    kernel_size: 5
    stride: 1
    weight_filler {
      type: "xavier"
      std: 0.03
    }
  }
}
layer {
  name: "ReLU6"
  type: "ReLU"
  bottom: "Convolution6"
  top: "Convolution6"
}
layer {
  name: "Pooling3"
  type: "Pooling"
  bottom: "Pooling2"
  top: "Pooling3"
  pooling_param {
    pool: MAX
    kernel_size: 3
    stride: 1
    pad: 1
  }
}
layer {
  name: "Convolution7"
  type: "Convolution"
  bottom: "Pooling3"
  top: "Convolution7"
  param {
    lr_mult: 0.1
    decay_mult: 1
  }
  param {
    lr_mult: 0.2
    decay_mult: 0
  }
  convolution_param {
    num_output: 32
    pad: 0
    kernel_size: 1
    stride: 1
    weight_filler {
      type: "xavier"
      std: 0.1
    }
  }
}
layer {
  name: "ReLU7"
  type: "ReLU"
  bottom: "Convolution7"
  top: "Convolution7"
}
layer {
  name: "Convolution8"
  type: "Convolution"
  bottom: "Pooling2"
  top: "Convolution8"
  param {
    lr_mult: 0.1
    decay_mult: 1
  }
  param {
    lr_mult: 0.2
    decay_mult: 0
  }
  convolution_param {
    num_output: 64
    pad: 0
    kernel_size: 1
    stride: 1
    weight_filler {
      type: "xavier"
      std: 0.03
    }
  }
}
layer {
  name: "ReLU8"
  type: "ReLU"
  bottom: "Convolution8"
  top: "Convolution8"
}
layer {
  name: "Concat1"
  type: "Concat"
  bottom: "Convolution4"
  bottom: "Convolution6"
  bottom: "Convolution7"
  bottom: "Convolution8"
  top: "Concat1"
}
layer {
  name: "Convolution9"
  type: "Convolution"
  bottom: "Concat1"
  top: "Convolution9"
  param {
    lr_mult: 1
    decay_mult: 1
  }
  param {
    lr_mult: 2
    decay_mult: 0
  }
  convolution_param {
    num_output: 128
    pad: 0
    kernel_size: 1
    stride: 1
    weight_filler {
      type: "xavier"
      std: 0.03
    }
  }
}
layer {
  name: "ReLU9"
  type: "ReLU"
  bottom: "Convolution9"
  top: "Convolution9"
}
layer {
  name: "Convolution10"
  type: "Convolution"
  bottom: "Concat1"
  top: "Convolution10"
  param {
    lr_mult: 1
    decay_mult: 1
  }
  param {
    lr_mult: 2
    decay_mult: 0
  }
  convolution_param {
    num_output: 128
    pad: 0
    kernel_size: 1
    stride: 1
    weight_filler {
      type: "xavier"
      std: 0.09
    }
  }
}
layer {
  name: "ReLU10"
  type: "ReLU"
  bottom: "Convolution10"
  top: "Convolution10"
}
layer {
  name: "Convolution11"
  type: "Convolution"
  bottom: "Convolution10"
  top: "Convolution11"
  param {
    lr_mult: 1
    decay_mult: 1
  }
  param {
    lr_mult: 2
    decay_mult: 0
  }
  convolution_param {
    num_output: 192
    pad: 1
    kernel_size: 3
    stride: 1
    weight_filler {
      type: "xavier"
      std: 0.03
    }
  }
}
layer {
  name: "ReLU11"
  type: "ReLU"
  bottom: "Convolution11"
  top: "Convolution11"
}
layer {
  name: "Convolution12"
  type: "Convolution"
  bottom: "Concat1"
  top: "Convolution12"
  param {
    lr_mult: 1
    decay_mult: 1
  }
  param {
    lr_mult: 2
    decay_mult: 0
  }
  convolution_param {
    num_output: 32
    pad: 0
    kernel_size: 1
    stride: 1
    weight_filler {
      type: "xavier"
      std: 0.2
    }
  }
}
layer {
  name: "ReLU12"
  type: "ReLU"
  bottom: "Convolution12"
  top: "Convolution12"
}
layer {
  name: "Convolution13"
  type: "Convolution"
  bottom: "Convolution12"
  top: "Convolution13"
  param {
    lr_mult: 1
    decay_mult: 1
  }
  param {
    lr_mult: 2
    decay_mult: 0
  }
  convolution_param {
    num_output: 96
    pad: 2
    kernel_size: 5
    stride: 1
    weight_filler {
      type: "xavier"
      std: 0.03
    }
  }
}
layer {
  name: "ReLU13"
  type: "ReLU"
  bottom: "Convolution13"
  top: "Convolution13"
}
layer {
  name: "Pooling4"
  type: "Pooling"
  bottom: "Concat1"
  top: "Pooling4"
  pooling_param {
    pool: MAX
    kernel_size: 3
    stride: 1
    pad: 1
  }
}
layer {
  name: "Convolution14"
  type: "Convolution"
  bottom: "Pooling4"
  top: "Convolution14"
  param {
    lr_mult: 1
    decay_mult: 1
  }
  param {
    lr_mult: 2
    decay_mult: 0
  }
  convolution_param {
    num_output: 64
    pad: 0
    kernel_size: 1
    stride: 1
    weight_filler {
      type: "xavier"
      std: 0.1
    }
  }
}
layer {
  name: "ReLU14"
  type: "ReLU"
  bottom: "Convolution14"
  top: "Convolution14"
}
layer {
  name: "Concat2"
  type: "Concat"
  bottom: "Convolution9"
  bottom: "Convolution11"
  bottom: "Convolution13"
  bottom: "Convolution14"
  top: "Concat2"
}
layer {
  name: "Pooling5"
  type: "Pooling"
  bottom: "Concat2"
  top: "Pooling5"
  pooling_param {
    pool: MAX
    kernel_size: 3
    stride: 2
  }
}
layer {
  name: "Convolution15"
  type: "Convolution"
  bottom: "Pooling5"
  top: "Convolution15"
  param {
    lr_mult: 1
    decay_mult: 1
  }
  param {
    lr_mult: 2
    decay_mult: 0
  }
  convolution_param {
    num_output: 192
    pad: 0
    kernel_size: 1
    stride: 1
    weight_filler {
      type: "xavier"
      std: 0.03
    }
  }
}
layer {
  name: "ReLU15"
  type: "ReLU"
  bottom: "Convolution15"
  top: "Convolution15"
}
layer {
  name: "Convolution16"
  type: "Convolution"
  bottom: "Pooling5"
  top: "Convolution16"
  param {
    lr_mult: 1
    decay_mult: 1
  }
  param {
    lr_mult: 2
    decay_mult: 0
  }
  convolution_param {
    num_output: 96
    pad: 0
    kernel_size: 1
    stride: 1
    weight_filler {
      type: "xavier"
      std: 0.09
    }
  }
}
layer {
  name: "ReLU16"
  type: "ReLU"
  bottom: "Convolution16"
  top: "Convolution16"
}
layer {
  name: "Convolution17"
  type: "Convolution"
  bottom: "Convolution16"
  top: "Convolution17"
  param {
    lr_mult: 1
    decay_mult: 1
  }
  param {
    lr_mult: 2
    decay_mult: 0
  }
  convolution_param {
    num_output: 208
    pad: 1
    kernel_size: 3
    stride: 1
    weight_filler {
      type: "xavier"
      std: 0.03
    }
  }
}
layer {
  name: "ReLU17"
  type: "ReLU"
  bottom: "Convolution17"
  top: "Convolution17"
}
layer {
  name: "Convolution18"
  type: "Convolution"
  bottom: "Pooling5"
  top: "Convolution18"
  param {
    lr_mult: 1
    decay_mult: 1
  }
  param {
    lr_mult: 2
    decay_mult: 0
  }
  convolution_param {
    num_output: 16
    pad: 0
    kernel_size: 1
    stride: 1
    weight_filler {
      type: "xavier"
      std: 0.2
    }
  }
}
layer {
  name: "ReLU18"
  type: "ReLU"
  bottom: "Convolution18"
  top: "Convolution18"
}
layer {
  name: "Convolution19"
  type: "Convolution"
  bottom: "Convolution18"
  top: "Convolution19"
  param {
    lr_mult: 1
    decay_mult: 1
  }
  param {
    lr_mult: 2
    decay_mult: 0
  }
  convolution_param {
    num_output: 48
    pad: 2
    kernel_size: 5
    stride: 1
    weight_filler {
      type: "xavier"
      std: 0.03
    }
  }
}
layer {
  name: "ReLU19"
  type: "ReLU"
  bottom: "Convolution19"
  top: "Convolution19"
}
layer {
  name: "Pooling6"
  type: "Pooling"
  bottom: "Pooling5"
  top: "Pooling6"
  pooling_param {
    pool: MAX
    kernel_size: 3
    stride: 1
    pad: 1
  }
}
layer {
  name: "Convolution20"
  type: "Convolution"
  bottom: "Pooling6"
  top: "Convolution20"
  param {
    lr_mult: 1
    decay_mult: 1
  }
  param {
    lr_mult: 2
    decay_mult: 0
  }
  convolution_param {
    num_output: 64
    pad: 0
    kernel_size: 1
    stride: 1
    weight_filler {
      type: "xavier"
      std: 0.1
    }
  }
}
layer {
  name: "ReLU20"
  type: "ReLU"
  bottom: "Convolution20"
  top: "Convolution20"
}
layer {
  name: "Concat3"
  type: "Concat"
  bottom: "Convolution15"
  bottom: "Convolution17"
  bottom: "Convolution19"
  bottom: "Convolution20"
  top: "Concat3"
}
layer {
  name: "Pooling7"
  type: "Pooling"
  bottom: "Concat3"
  top: "Pooling7"
  pooling_param {
    pool: AVE
    kernel_size: 7
    stride: 1
  }
}
layer {
  name: "InnerProduct1"
  type: "InnerProduct"
  bottom: "Pooling7"
  top: "InnerProduct1"
  param {
    lr_mult: 1
    decay_mult: 1
  }
  param {
    lr_mult: 2
    decay_mult: 0
  }
  inner_product_param {
    num_output: 4096
    weight_filler {
      type: "xavier"
    }
  }
}
layer {
  name: "ReLU21"
  type: "ReLU"
  bottom: "InnerProduct1"
  top: "InnerProduct1"
}
layer {
  name: "Dropout1"
  type: "Dropout"
  bottom: "InnerProduct1"
  top: "InnerProduct1"
  dropout_param {
    dropout_ratio: 0.4
  }
}
layer {
  name: "InnerProduct2"
  type: "InnerProduct"
  bottom: "InnerProduct1"
  top: "InnerProduct2"
  param {
    lr_mult: 10
    decay_mult: 1
  }
  param {
    lr_mult: 20
    decay_mult: 0
  }
  inner_product_param {
    num_output: 1024
    weight_filler {
      type: "xavier"
    }
  }
}
layer {
  name: "SoftmaxWithLoss1"
  type: "SoftmaxWithLoss"
  bottom: "InnerProduct2"
  bottom: "Data2"
  top: "SoftmaxWithLoss1"
}
layer {
  name: "Accuracy1"
  type: "Accuracy"
  bottom: "InnerProduct2"
  bottom: "Data2"
  top: "Accuracy1"
  include {
    phase: TEST
  }
}
I1127 14:16:22.352341  2966 layer_factory.hpp:77] Creating layer Data1
I1127 14:16:22.352392  2966 net.cpp:100] Creating Layer Data1
I1127 14:16:22.352409  2966 net.cpp:408] Data1 -> Data1
I1127 14:16:22.352453  2966 net.cpp:408] Data1 -> Data2
I1127 14:16:22.352468  2966 data_transformer.cpp:25] Loading mean file from: /home/caffe/caffe/examples/myfile/myfile_nin/mean.binaryproto
I1127 14:16:22.357266  2970 db_lmdb.cpp:35] Opened lmdb /home/caffe/caffe/examples/myfile/myfile_nin/img_test_lmdb
I1127 14:16:22.358213  2966 data_layer.cpp:41] output data size: 4,1,114,114
I1127 14:16:22.358496  2966 net.cpp:150] Setting up Data1
I1127 14:16:22.358551  2966 net.cpp:157] Top shape: 4 1 114 114 (51984)
I1127 14:16:22.358593  2966 net.cpp:157] Top shape: 4 (4)
I1127 14:16:22.358633  2966 net.cpp:165] Memory required for data: 207952
I1127 14:16:22.358677  2966 layer_factory.hpp:77] Creating layer Data2_Data1_1_split
I1127 14:16:22.358814  2966 net.cpp:100] Creating Layer Data2_Data1_1_split
I1127 14:16:22.358857  2966 net.cpp:434] Data2_Data1_1_split <- Data2
I1127 14:16:22.358901  2966 net.cpp:408] Data2_Data1_1_split -> Data2_Data1_1_split_0
I1127 14:16:22.358958  2966 net.cpp:408] Data2_Data1_1_split -> Data2_Data1_1_split_1
I1127 14:16:22.359006  2966 net.cpp:150] Setting up Data2_Data1_1_split
I1127 14:16:22.359050  2966 net.cpp:157] Top shape: 4 (4)
I1127 14:16:22.359089  2966 net.cpp:157] Top shape: 4 (4)
I1127 14:16:22.359127  2966 net.cpp:165] Memory required for data: 207984
I1127 14:16:22.359166  2966 layer_factory.hpp:77] Creating layer Convolution1
I1127 14:16:22.359212  2966 net.cpp:100] Creating Layer Convolution1
I1127 14:16:22.359252  2966 net.cpp:434] Convolution1 <- Data1
I1127 14:16:22.359283  2966 net.cpp:408] Convolution1 -> Convolution1
I1127 14:16:22.359329  2966 net.cpp:150] Setting up Convolution1
I1127 14:16:22.359338  2966 net.cpp:157] Top shape: 4 64 57 57 (831744)
I1127 14:16:22.359344  2966 net.cpp:165] Memory required for data: 3534960
I1127 14:16:22.359354  2966 layer_factory.hpp:77] Creating layer ReLU1
I1127 14:16:22.359361  2966 net.cpp:100] Creating Layer ReLU1
I1127 14:16:22.359367  2966 net.cpp:434] ReLU1 <- Convolution1
I1127 14:16:22.359374  2966 net.cpp:395] ReLU1 -> Convolution1 (in-place)
I1127 14:16:22.359381  2966 net.cpp:150] Setting up ReLU1
I1127 14:16:22.359387  2966 net.cpp:157] Top shape: 4 64 57 57 (831744)
I1127 14:16:22.359393  2966 net.cpp:165] Memory required for data: 6861936
I1127 14:16:22.359398  2966 layer_factory.hpp:77] Creating layer Pooling1
I1127 14:16:22.359406  2966 net.cpp:100] Creating Layer Pooling1
I1127 14:16:22.359412  2966 net.cpp:434] Pooling1 <- Convolution1
I1127 14:16:22.359418  2966 net.cpp:408] Pooling1 -> Pooling1
I1127 14:16:22.359428  2966 net.cpp:150] Setting up Pooling1
I1127 14:16:22.359434  2966 net.cpp:157] Top shape: 4 64 28 28 (200704)
I1127 14:16:22.359453  2966 net.cpp:165] Memory required for data: 7664752
I1127 14:16:22.359460  2966 layer_factory.hpp:77] Creating layer Convolution2
I1127 14:16:22.359470  2966 net.cpp:100] Creating Layer Convolution2
I1127 14:16:22.359475  2966 net.cpp:434] Convolution2 <- Pooling1
I1127 14:16:22.359483  2966 net.cpp:408] Convolution2 -> Convolution2
I1127 14:16:22.360258  2966 net.cpp:150] Setting up Convolution2
I1127 14:16:22.360270  2966 net.cpp:157] Top shape: 4 192 28 28 (602112)
I1127 14:16:22.360275  2966 net.cpp:165] Memory required for data: 10073200
I1127 14:16:22.360285  2966 layer_factory.hpp:77] Creating layer ReLU2
I1127 14:16:22.360291  2966 net.cpp:100] Creating Layer ReLU2
I1127 14:16:22.360297  2966 net.cpp:434] ReLU2 <- Convolution2
I1127 14:16:22.360306  2966 net.cpp:395] ReLU2 -> Convolution2 (in-place)
I1127 14:16:22.360313  2966 net.cpp:150] Setting up ReLU2
I1127 14:16:22.360319  2966 net.cpp:157] Top shape: 4 192 28 28 (602112)
I1127 14:16:22.360324  2966 net.cpp:165] Memory required for data: 12481648
I1127 14:16:22.360330  2966 layer_factory.hpp:77] Creating layer Pooling2
I1127 14:16:22.360337  2966 net.cpp:100] Creating Layer Pooling2
I1127 14:16:22.360342  2966 net.cpp:434] Pooling2 <- Convolution2
I1127 14:16:22.360348  2966 net.cpp:408] Pooling2 -> Pooling2
I1127 14:16:22.360374  2966 net.cpp:150] Setting up Pooling2
I1127 14:16:22.360381  2966 net.cpp:157] Top shape: 4 192 14 14 (150528)
I1127 14:16:22.360386  2966 net.cpp:165] Memory required for data: 13083760
I1127 14:16:22.360391  2966 layer_factory.hpp:77] Creating layer Pooling2_Pooling2_0_split
I1127 14:16:22.360399  2966 net.cpp:100] Creating Layer Pooling2_Pooling2_0_split
I1127 14:16:22.360404  2966 net.cpp:434] Pooling2_Pooling2_0_split <- Pooling2
I1127 14:16:22.360410  2966 net.cpp:408] Pooling2_Pooling2_0_split -> Pooling2_Pooling2_0_split_0
I1127 14:16:22.360420  2966 net.cpp:408] Pooling2_Pooling2_0_split -> Pooling2_Pooling2_0_split_1
I1127 14:16:22.360427  2966 net.cpp:408] Pooling2_Pooling2_0_split -> Pooling2_Pooling2_0_split_2
I1127 14:16:22.360435  2966 net.cpp:408] Pooling2_Pooling2_0_split -> Pooling2_Pooling2_0_split_3
I1127 14:16:22.360455  2966 net.cpp:150] Setting up Pooling2_Pooling2_0_split
I1127 14:16:22.360465  2966 net.cpp:157] Top shape: 4 192 14 14 (150528)
I1127 14:16:22.360471  2966 net.cpp:157] Top shape: 4 192 14 14 (150528)
I1127 14:16:22.360477  2966 net.cpp:157] Top shape: 4 192 14 14 (150528)
I1127 14:16:22.360482  2966 net.cpp:157] Top shape: 4 192 14 14 (150528)
I1127 14:16:22.360488  2966 net.cpp:165] Memory required for data: 15492208
I1127 14:16:22.360493  2966 layer_factory.hpp:77] Creating layer Convolution3
I1127 14:16:22.360502  2966 net.cpp:100] Creating Layer Convolution3
I1127 14:16:22.360508  2966 net.cpp:434] Convolution3 <- Pooling2_Pooling2_0_split_0
I1127 14:16:22.360517  2966 net.cpp:408] Convolution3 -> Convolution3
I1127 14:16:22.360657  2966 net.cpp:150] Setting up Convolution3
I1127 14:16:22.360666  2966 net.cpp:157] Top shape: 4 96 14 14 (75264)
I1127 14:16:22.360671  2966 net.cpp:165] Memory required for data: 15793264
I1127 14:16:22.360680  2966 layer_factory.hpp:77] Creating layer ReLU3
I1127 14:16:22.360687  2966 net.cpp:100] Creating Layer ReLU3
I1127 14:16:22.360692  2966 net.cpp:434] ReLU3 <- Convolution3
I1127 14:16:22.360698  2966 net.cpp:395] ReLU3 -> Convolution3 (in-place)
I1127 14:16:22.360705  2966 net.cpp:150] Setting up ReLU3
I1127 14:16:22.360712  2966 net.cpp:157] Top shape: 4 96 14 14 (75264)
I1127 14:16:22.360716  2966 net.cpp:165] Memory required for data: 16094320
I1127 14:16:22.360721  2966 layer_factory.hpp:77] Creating layer Convolution4
I1127 14:16:22.360730  2966 net.cpp:100] Creating Layer Convolution4
I1127 14:16:22.361508  2966 net.cpp:434] Convolution4 <- Convolution3
I1127 14:16:22.361524  2966 net.cpp:408] Convolution4 -> Convolution4
I1127 14:16:22.362303  2966 net.cpp:150] Setting up Convolution4
I1127 14:16:22.365607  2966 net.cpp:157] Top shape: 4 128 14 14 (100352)
I1127 14:16:22.365628  2966 net.cpp:165] Memory required for data: 16495728
I1127 14:16:22.365638  2966 layer_factory.hpp:77] Creating layer ReLU4
I1127 14:16:22.365645  2966 net.cpp:100] Creating Layer ReLU4
I1127 14:16:22.365651  2966 net.cpp:434] ReLU4 <- Convolution4
I1127 14:16:22.365658  2966 net.cpp:395] ReLU4 -> Convolution4 (in-place)
I1127 14:16:22.365666  2966 net.cpp:150] Setting up ReLU4
I1127 14:16:22.365672  2966 net.cpp:157] Top shape: 4 128 14 14 (100352)
I1127 14:16:22.365677  2966 net.cpp:165] Memory required for data: 16897136
I1127 14:16:22.365684  2966 layer_factory.hpp:77] Creating layer Convolution5
I1127 14:16:22.365694  2966 net.cpp:100] Creating Layer Convolution5
I1127 14:16:22.365700  2966 net.cpp:434] Convolution5 <- Pooling2_Pooling2_0_split_1
I1127 14:16:22.365707  2966 net.cpp:408] Convolution5 -> Convolution5
I1127 14:16:22.365746  2966 net.cpp:150] Setting up Convolution5
I1127 14:16:22.365753  2966 net.cpp:157] Top shape: 4 16 14 14 (12544)
I1127 14:16:22.365758  2966 net.cpp:165] Memory required for data: 16947312
I1127 14:16:22.365768  2966 layer_factory.hpp:77] Creating layer ReLU5
I1127 14:16:22.365775  2966 net.cpp:100] Creating Layer ReLU5
I1127 14:16:22.365780  2966 net.cpp:434] ReLU5 <- Convolution5
I1127 14:16:22.365787  2966 net.cpp:395] ReLU5 -> Convolution5 (in-place)
I1127 14:16:22.365794  2966 net.cpp:150] Setting up ReLU5
I1127 14:16:22.366243  2966 net.cpp:157] Top shape: 4 16 14 14 (12544)
I1127 14:16:22.366251  2966 net.cpp:165] Memory required for data: 16997488
I1127 14:16:22.366257  2966 layer_factory.hpp:77] Creating layer Convolution6
I1127 14:16:22.366266  2966 net.cpp:100] Creating Layer Convolution6
I1127 14:16:22.366272  2966 net.cpp:434] Convolution6 <- Convolution5
I1127 14:16:22.366293  2966 net.cpp:408] Convolution6 -> Convolution6
I1127 14:16:22.366396  2966 net.cpp:150] Setting up Convolution6
I1127 14:16:22.366405  2966 net.cpp:157] Top shape: 4 32 14 14 (25088)
I1127 14:16:22.366410  2966 net.cpp:165] Memory required for data: 17097840
I1127 14:16:22.366416  2966 layer_factory.hpp:77] Creating layer ReLU6
I1127 14:16:22.366425  2966 net.cpp:100] Creating Layer ReLU6
I1127 14:16:22.366431  2966 net.cpp:434] ReLU6 <- Convolution6
I1127 14:16:22.366436  2966 net.cpp:395] ReLU6 -> Convolution6 (in-place)
I1127 14:16:22.366443  2966 net.cpp:150] Setting up ReLU6
I1127 14:16:22.366449  2966 net.cpp:157] Top shape: 4 32 14 14 (25088)
I1127 14:16:22.366454  2966 net.cpp:165] Memory required for data: 17198192
I1127 14:16:22.366474  2966 layer_factory.hpp:77] Creating layer Pooling3
I1127 14:16:22.366483  2966 net.cpp:100] Creating Layer Pooling3
I1127 14:16:22.366488  2966 net.cpp:434] Pooling3 <- Pooling2_Pooling2_0_split_2
I1127 14:16:22.366495  2966 net.cpp:408] Pooling3 -> Pooling3
I1127 14:16:22.366506  2966 net.cpp:150] Setting up Pooling3
I1127 14:16:22.366515  2966 net.cpp:157] Top shape: 4 192 14 14 (150528)
I1127 14:16:22.366520  2966 net.cpp:165] Memory required for data: 17800304
I1127 14:16:22.366525  2966 layer_factory.hpp:77] Creating layer Convolution7
I1127 14:16:22.366533  2966 net.cpp:100] Creating Layer Convolution7
I1127 14:16:22.366539  2966 net.cpp:434] Convolution7 <- Pooling3
I1127 14:16:22.366546  2966 net.cpp:408] Convolution7 -> Convolution7
I1127 14:16:22.366605  2966 net.cpp:150] Setting up Convolution7
I1127 14:16:22.366665  2966 net.cpp:157] Top shape: 4 32 14 14 (25088)
I1127 14:16:22.366672  2966 net.cpp:165] Memory required for data: 17900656
I1127 14:16:22.366679  2966 layer_factory.hpp:77] Creating layer ReLU7
I1127 14:16:22.366686  2966 net.cpp:100] Creating Layer ReLU7
I1127 14:16:22.366691  2966 net.cpp:434] ReLU7 <- Convolution7
I1127 14:16:22.366698  2966 net.cpp:395] ReLU7 -> Convolution7 (in-place)
I1127 14:16:22.366828  2966 net.cpp:150] Setting up ReLU7
I1127 14:16:22.366837  2966 net.cpp:157] Top shape: 4 32 14 14 (25088)
I1127 14:16:22.366842  2966 net.cpp:165] Memory required for data: 18001008
I1127 14:16:22.366847  2966 layer_factory.hpp:77] Creating layer Convolution8
I1127 14:16:22.366857  2966 net.cpp:100] Creating Layer Convolution8
I1127 14:16:22.366861  2966 net.cpp:434] Convolution8 <- Pooling2_Pooling2_0_split_3
I1127 14:16:22.366870  2966 net.cpp:408] Convolution8 -> Convolution8
I1127 14:16:22.366996  2966 net.cpp:150] Setting up Convolution8
I1127 14:16:22.367204  2966 net.cpp:157] Top shape: 4 64 14 14 (50176)
I1127 14:16:22.367210  2966 net.cpp:165] Memory required for data: 18201712
I1127 14:16:22.367218  2966 layer_factory.hpp:77] Creating layer ReLU8
I1127 14:16:22.367226  2966 net.cpp:100] Creating Layer ReLU8
I1127 14:16:22.367296  2966 net.cpp:434] ReLU8 <- Convolution8
I1127 14:16:22.367305  2966 net.cpp:395] ReLU8 -> Convolution8 (in-place)
I1127 14:16:22.367311  2966 net.cpp:150] Setting up ReLU8
I1127 14:16:22.367317  2966 net.cpp:157] Top shape: 4 64 14 14 (50176)
I1127 14:16:22.367322  2966 net.cpp:165] Memory required for data: 18402416
I1127 14:16:22.367327  2966 layer_factory.hpp:77] Creating layer Concat1
I1127 14:16:22.367334  2966 net.cpp:100] Creating Layer Concat1
I1127 14:16:22.367339  2966 net.cpp:434] Concat1 <- Convolution4
I1127 14:16:22.367347  2966 net.cpp:434] Concat1 <- Convolution6
I1127 14:16:22.367352  2966 net.cpp:434] Concat1 <- Convolution7
I1127 14:16:22.367357  2966 net.cpp:434] Concat1 <- Convolution8
I1127 14:16:22.367378  2966 net.cpp:408] Concat1 -> Concat1
I1127 14:16:22.367522  2966 net.cpp:150] Setting up Concat1
I1127 14:16:22.367540  2966 net.cpp:157] Top shape: 4 256 14 14 (200704)
I1127 14:16:22.367547  2966 net.cpp:165] Memory required for data: 19205232
I1127 14:16:22.367552  2966 layer_factory.hpp:77] Creating layer Concat1_Concat1_0_split
I1127 14:16:22.367559  2966 net.cpp:100] Creating Layer Concat1_Concat1_0_split
I1127 14:16:22.367564  2966 net.cpp:434] Concat1_Concat1_0_split <- Concat1
I1127 14:16:22.367573  2966 net.cpp:408] Concat1_Concat1_0_split -> Concat1_Concat1_0_split_0
I1127 14:16:22.367580  2966 net.cpp:408] Concat1_Concat1_0_split -> Concat1_Concat1_0_split_1
I1127 14:16:22.367588  2966 net.cpp:408] Concat1_Concat1_0_split -> Concat1_Concat1_0_split_2
I1127 14:16:22.367594  2966 net.cpp:408] Concat1_Concat1_0_split -> Concat1_Concat1_0_split_3
I1127 14:16:22.367604  2966 net.cpp:150] Setting up Concat1_Concat1_0_split
I1127 14:16:22.367609  2966 net.cpp:157] Top shape: 4 256 14 14 (200704)
I1127 14:16:22.367615  2966 net.cpp:157] Top shape: 4 256 14 14 (200704)
I1127 14:16:22.367621  2966 net.cpp:157] Top shape: 4 256 14 14 (200704)
I1127 14:16:22.367626  2966 net.cpp:157] Top shape: 4 256 14 14 (200704)
I1127 14:16:22.367631  2966 net.cpp:165] Memory required for data: 22416496
I1127 14:16:22.367636  2966 layer_factory.hpp:77] Creating layer Convolution9
I1127 14:16:22.367713  2966 net.cpp:100] Creating Layer Convolution9
I1127 14:16:22.367719  2966 net.cpp:434] Convolution9 <- Concat1_Concat1_0_split_0
I1127 14:16:22.367727  2966 net.cpp:408] Convolution9 -> Convolution9
I1127 14:16:22.367982  2966 net.cpp:150] Setting up Convolution9
I1127 14:16:22.368094  2966 net.cpp:157] Top shape: 4 128 14 14 (100352)
I1127 14:16:22.368100  2966 net.cpp:165] Memory required for data: 22817904
I1127 14:16:22.368113  2966 layer_factory.hpp:77] Creating layer ReLU9
I1127 14:16:22.368120  2966 net.cpp:100] Creating Layer ReLU9
I1127 14:16:22.368125  2966 net.cpp:434] ReLU9 <- Convolution9
I1127 14:16:22.368132  2966 net.cpp:395] ReLU9 -> Convolution9 (in-place)
I1127 14:16:22.368140  2966 net.cpp:150] Setting up ReLU9
I1127 14:16:22.368146  2966 net.cpp:157] Top shape: 4 128 14 14 (100352)
I1127 14:16:22.368151  2966 net.cpp:165] Memory required for data: 23219312
I1127 14:16:22.368156  2966 layer_factory.hpp:77] Creating layer Convolution10
I1127 14:16:22.368165  2966 net.cpp:100] Creating Layer Convolution10
I1127 14:16:22.368171  2966 net.cpp:434] Convolution10 <- Concat1_Concat1_0_split_1
I1127 14:16:22.368180  2966 net.cpp:408] Convolution10 -> Convolution10
I1127 14:16:22.368502  2966 net.cpp:150] Setting up Convolution10
I1127 14:16:22.368515  2966 net.cpp:157] Top shape: 4 128 14 14 (100352)
I1127 14:16:22.368520  2966 net.cpp:165] Memory required for data: 23620720
I1127 14:16:22.368526  2966 layer_factory.hpp:77] Creating layer ReLU10
I1127 14:16:22.368533  2966 net.cpp:100] Creating Layer ReLU10
I1127 14:16:22.368538  2966 net.cpp:434] ReLU10 <- Convolution10
I1127 14:16:22.368546  2966 net.cpp:395] ReLU10 -> Convolution10 (in-place)
I1127 14:16:22.368553  2966 net.cpp:150] Setting up ReLU10
I1127 14:16:22.368559  2966 net.cpp:157] Top shape: 4 128 14 14 (100352)
I1127 14:16:22.373857  2966 net.cpp:165] Memory required for data: 24022128
I1127 14:16:22.373875  2966 layer_factory.hpp:77] Creating layer Convolution11
I1127 14:16:22.373894  2966 net.cpp:100] Creating Layer Convolution11
I1127 14:16:22.373903  2966 net.cpp:434] Convolution11 <- Convolution10
I1127 14:16:22.373917  2966 net.cpp:408] Convolution11 -> Convolution11
I1127 14:16:22.375530  2966 net.cpp:150] Setting up Convolution11
I1127 14:16:22.377524  2966 net.cpp:157] Top shape: 4 192 14 14 (150528)
I1127 14:16:22.377532  2966 net.cpp:165] Memory required for data: 24624240
I1127 14:16:22.377542  2966 layer_factory.hpp:77] Creating layer ReLU11
I1127 14:16:22.377549  2966 net.cpp:100] Creating Layer ReLU11
I1127 14:16:22.377557  2966 net.cpp:434] ReLU11 <- Convolution11
I1127 14:16:22.377563  2966 net.cpp:395] ReLU11 -> Convolution11 (in-place)
I1127 14:16:22.377573  2966 net.cpp:150] Setting up ReLU11
I1127 14:16:22.377578  2966 net.cpp:157] Top shape: 4 192 14 14 (150528)
I1127 14:16:22.377601  2966 net.cpp:165] Memory required for data: 25226352
I1127 14:16:22.377607  2966 layer_factory.hpp:77] Creating layer Convolution12
I1127 14:16:22.377619  2966 net.cpp:100] Creating Layer Convolution12
I1127 14:16:22.377624  2966 net.cpp:434] Convolution12 <- Concat1_Concat1_0_split_2
I1127 14:16:22.377632  2966 net.cpp:408] Convolution12 -> Convolution12
I1127 14:16:22.377707  2966 net.cpp:150] Setting up Convolution12
I1127 14:16:22.377715  2966 net.cpp:157] Top shape: 4 32 14 14 (25088)
I1127 14:16:22.377722  2966 net.cpp:165] Memory required for data: 25326704
I1127 14:16:22.377728  2966 layer_factory.hpp:77] Creating layer ReLU12
I1127 14:16:22.377734  2966 net.cpp:100] Creating Layer ReLU12
I1127 14:16:22.377740  2966 net.cpp:434] ReLU12 <- Convolution12
I1127 14:16:22.377746  2966 net.cpp:395] ReLU12 -> Convolution12 (in-place)
I1127 14:16:22.377753  2966 net.cpp:150] Setting up ReLU12
I1127 14:16:22.377760  2966 net.cpp:157] Top shape: 4 32 14 14 (25088)
I1127 14:16:22.377765  2966 net.cpp:165] Memory required for data: 25427056
I1127 14:16:22.377770  2966 layer_factory.hpp:77] Creating layer Convolution13
I1127 14:16:22.377785  2966 net.cpp:100] Creating Layer Convolution13
I1127 14:16:22.377790  2966 net.cpp:434] Convolution13 <- Convolution12
I1127 14:16:22.377799  2966 net.cpp:408] Convolution13 -> Convolution13
I1127 14:16:22.378504  2966 net.cpp:150] Setting up Convolution13
I1127 14:16:22.378543  2966 net.cpp:157] Top shape: 4 96 14 14 (75264)
I1127 14:16:22.378552  2966 net.cpp:165] Memory required for data: 25728112
I1127 14:16:22.378564  2966 layer_factory.hpp:77] Creating layer ReLU13
I1127 14:16:22.378572  2966 net.cpp:100] Creating Layer ReLU13
I1127 14:16:22.378579  2966 net.cpp:434] ReLU13 <- Convolution13
I1127 14:16:22.378587  2966 net.cpp:395] ReLU13 -> Convolution13 (in-place)
I1127 14:16:22.378597  2966 net.cpp:150] Setting up ReLU13
I1127 14:16:22.378603  2966 net.cpp:157] Top shape: 4 96 14 14 (75264)
I1127 14:16:22.378608  2966 net.cpp:165] Memory required for data: 26029168
I1127 14:16:22.378614  2966 layer_factory.hpp:77] Creating layer Pooling4
I1127 14:16:22.378621  2966 net.cpp:100] Creating Layer Pooling4
I1127 14:16:22.378628  2966 net.cpp:434] Pooling4 <- Concat1_Concat1_0_split_3
I1127 14:16:22.378635  2966 net.cpp:408] Pooling4 -> Pooling4
I1127 14:16:22.378645  2966 net.cpp:150] Setting up Pooling4
I1127 14:16:22.378653  2966 net.cpp:157] Top shape: 4 256 14 14 (200704)
I1127 14:16:22.378659  2966 net.cpp:165] Memory required for data: 26831984
I1127 14:16:22.378665  2966 layer_factory.hpp:77] Creating layer Convolution14
I1127 14:16:22.378676  2966 net.cpp:100] Creating Layer Convolution14
I1127 14:16:22.378681  2966 net.cpp:434] Convolution14 <- Pooling4
I1127 14:16:22.378691  2966 net.cpp:408] Convolution14 -> Convolution14
I1127 14:16:22.378816  2966 net.cpp:150] Setting up Convolution14
I1127 14:16:22.380033  2966 net.cpp:157] Top shape: 4 64 14 14 (50176)
I1127 14:16:22.380039  2966 net.cpp:165] Memory required for data: 27032688
I1127 14:16:22.380048  2966 layer_factory.hpp:77] Creating layer ReLU14
I1127 14:16:22.380054  2966 net.cpp:100] Creating Layer ReLU14
I1127 14:16:22.380060  2966 net.cpp:434] ReLU14 <- Convolution14
I1127 14:16:22.380066  2966 net.cpp:395] ReLU14 -> Convolution14 (in-place)
I1127 14:16:22.380074  2966 net.cpp:150] Setting up ReLU14
I1127 14:16:22.380080  2966 net.cpp:157] Top shape: 4 64 14 14 (50176)
I1127 14:16:22.380086  2966 net.cpp:165] Memory required for data: 27233392
I1127 14:16:22.380091  2966 layer_factory.hpp:77] Creating layer Concat2
I1127 14:16:22.380097  2966 net.cpp:100] Creating Layer Concat2
I1127 14:16:22.380103  2966 net.cpp:434] Concat2 <- Convolution9
I1127 14:16:22.380112  2966 net.cpp:434] Concat2 <- Convolution11
I1127 14:16:22.380118  2966 net.cpp:434] Concat2 <- Convolution13
I1127 14:16:22.380125  2966 net.cpp:434] Concat2 <- Convolution14
I1127 14:16:22.380131  2966 net.cpp:408] Concat2 -> Concat2
I1127 14:16:22.380139  2966 net.cpp:150] Setting up Concat2
I1127 14:16:22.380146  2966 net.cpp:157] Top shape: 4 480 14 14 (376320)
I1127 14:16:22.380164  2966 net.cpp:165] Memory required for data: 28738672
I1127 14:16:22.380169  2966 layer_factory.hpp:77] Creating layer Pooling5
I1127 14:16:22.380177  2966 net.cpp:100] Creating Layer Pooling5
I1127 14:16:22.380183  2966 net.cpp:434] Pooling5 <- Concat2
I1127 14:16:22.380189  2966 net.cpp:408] Pooling5 -> Pooling5
I1127 14:16:22.380201  2966 net.cpp:150] Setting up Pooling5
I1127 14:16:22.380208  2966 net.cpp:157] Top shape: 4 480 7 7 (94080)
I1127 14:16:22.380214  2966 net.cpp:165] Memory required for data: 29114992
I1127 14:16:22.380219  2966 layer_factory.hpp:77] Creating layer Pooling5_Pooling5_0_split
I1127 14:16:22.380228  2966 net.cpp:100] Creating Layer Pooling5_Pooling5_0_split
I1127 14:16:22.380233  2966 net.cpp:434] Pooling5_Pooling5_0_split <- Pooling5
I1127 14:16:22.380239  2966 net.cpp:408] Pooling5_Pooling5_0_split -> Pooling5_Pooling5_0_split_0
I1127 14:16:22.380247  2966 net.cpp:408] Pooling5_Pooling5_0_split -> Pooling5_Pooling5_0_split_1
I1127 14:16:22.380254  2966 net.cpp:408] Pooling5_Pooling5_0_split -> Pooling5_Pooling5_0_split_2
I1127 14:16:22.380261  2966 net.cpp:408] Pooling5_Pooling5_0_split -> Pooling5_Pooling5_0_split_3
I1127 14:16:22.380270  2966 net.cpp:150] Setting up Pooling5_Pooling5_0_split
I1127 14:16:22.380275  2966 net.cpp:157] Top shape: 4 480 7 7 (94080)
I1127 14:16:22.380281  2966 net.cpp:157] Top shape: 4 480 7 7 (94080)
I1127 14:16:22.380286  2966 net.cpp:157] Top shape: 4 480 7 7 (94080)
I1127 14:16:22.380292  2966 net.cpp:157] Top shape: 4 480 7 7 (94080)
I1127 14:16:22.380297  2966 net.cpp:165] Memory required for data: 30620272
I1127 14:16:22.380302  2966 layer_factory.hpp:77] Creating layer Convolution15
I1127 14:16:22.380311  2966 net.cpp:100] Creating Layer Convolution15
I1127 14:16:22.380317  2966 net.cpp:434] Convolution15 <- Pooling5_Pooling5_0_split_0
I1127 14:16:22.380327  2966 net.cpp:408] Convolution15 -> Convolution15
I1127 14:16:22.380985  2966 net.cpp:150] Setting up Convolution15
I1127 14:16:22.381006  2966 net.cpp:157] Top shape: 4 192 7 7 (37632)
I1127 14:16:22.381013  2966 net.cpp:165] Memory required for data: 30770800
I1127 14:16:22.381021  2966 layer_factory.hpp:77] Creating layer ReLU15
I1127 14:16:22.381028  2966 net.cpp:100] Creating Layer ReLU15
I1127 14:16:22.381033  2966 net.cpp:434] ReLU15 <- Convolution15
I1127 14:16:22.381043  2966 net.cpp:395] ReLU15 -> Convolution15 (in-place)
I1127 14:16:22.381055  2966 net.cpp:150] Setting up ReLU15
I1127 14:16:22.381062  2966 net.cpp:157] Top shape: 4 192 7 7 (37632)
I1127 14:16:22.381067  2966 net.cpp:165] Memory required for data: 30921328
I1127 14:16:22.381073  2966 layer_factory.hpp:77] Creating layer Convolution16
I1127 14:16:22.381083  2966 net.cpp:100] Creating Layer Convolution16
I1127 14:16:22.381088  2966 net.cpp:434] Convolution16 <- Pooling5_Pooling5_0_split_1
I1127 14:16:22.381095  2966 net.cpp:408] Convolution16 -> Convolution16
I1127 14:16:22.381427  2966 net.cpp:150] Setting up Convolution16
I1127 14:16:22.382779  2966 net.cpp:157] Top shape: 4 96 7 7 (18816)
I1127 14:16:22.382787  2966 net.cpp:165] Memory required for data: 30996592
I1127 14:16:22.382797  2966 layer_factory.hpp:77] Creating layer ReLU16
I1127 14:16:22.382803  2966 net.cpp:100] Creating Layer ReLU16
I1127 14:16:22.382809  2966 net.cpp:434] ReLU16 <- Convolution16
I1127 14:16:22.382817  2966 net.cpp:395] ReLU16 -> Convolution16 (in-place)
I1127 14:16:22.382825  2966 net.cpp:150] Setting up ReLU16
I1127 14:16:22.382833  2966 net.cpp:157] Top shape: 4 96 7 7 (18816)
I1127 14:16:22.382838  2966 net.cpp:165] Memory required for data: 31071856
I1127 14:16:22.382843  2966 layer_factory.hpp:77] Creating layer Convolution17
I1127 14:16:22.382851  2966 net.cpp:100] Creating Layer Convolution17
I1127 14:16:22.382856  2966 net.cpp:434] Convolution17 <- Convolution16
I1127 14:16:22.382863  2966 net.cpp:408] Convolution17 -> Convolution17
I1127 14:16:22.384130  2966 net.cpp:150] Setting up Convolution17
I1127 14:16:22.385340  2966 net.cpp:157] Top shape: 4 208 7 7 (40768)
I1127 14:16:22.385488  2966 net.cpp:165] Memory required for data: 31234928
I1127 14:16:22.385599  2966 layer_factory.hpp:77] Creating layer ReLU17
I1127 14:16:22.385720  2966 net.cpp:100] Creating Layer ReLU17
I1127 14:16:22.385767  2966 net.cpp:434] ReLU17 <- Convolution17
I1127 14:16:22.385814  2966 net.cpp:395] ReLU17 -> Convolution17 (in-place)
I1127 14:16:22.385864  2966 net.cpp:150] Setting up ReLU17
I1127 14:16:22.385967  2966 net.cpp:157] Top shape: 4 208 7 7 (40768)
I1127 14:16:22.386023  2966 net.cpp:165] Memory required for data: 31398000
I1127 14:16:22.386073  2966 layer_factory.hpp:77] Creating layer Convolution18
I1127 14:16:22.386159  2966 net.cpp:100] Creating Layer Convolution18
I1127 14:16:22.386227  2966 net.cpp:434] Convolution18 <- Pooling5_Pooling5_0_split_2
I1127 14:16:22.386276  2966 net.cpp:408] Convolution18 -> Convolution18
I1127 14:16:22.386386  2966 net.cpp:150] Setting up Convolution18
I1127 14:16:22.386744  2966 net.cpp:157] Top shape: 4 16 7 7 (3136)
I1127 14:16:22.386842  2966 net.cpp:165] Memory required for data: 31410544
I1127 14:16:22.386873  2966 layer_factory.hpp:77] Creating layer ReLU18
I1127 14:16:22.386936  2966 net.cpp:100] Creating Layer ReLU18
I1127 14:16:22.386981  2966 net.cpp:434] ReLU18 <- Convolution18
I1127 14:16:22.387109  2966 net.cpp:395] ReLU18 -> Convolution18 (in-place)
I1127 14:16:22.387178  2966 net.cpp:150] Setting up ReLU18
I1127 14:16:22.387226  2966 net.cpp:157] Top shape: 4 16 7 7 (3136)
I1127 14:16:22.387233  2966 net.cpp:165] Memory required for data: 31423088
I1127 14:16:22.387238  2966 layer_factory.hpp:77] Creating layer Convolution19
I1127 14:16:22.387270  2966 net.cpp:100] Creating Layer Convolution19
I1127 14:16:22.387370  2966 net.cpp:434] Convolution19 <- Convolution18
I1127 14:16:22.387418  2966 net.cpp:408] Convolution19 -> Convolution19
I1127 14:16:22.387622  2966 net.cpp:150] Setting up Convolution19
I1127 14:16:22.388401  2966 net.cpp:157] Top shape: 4 48 7 7 (9408)
I1127 14:16:22.388608  2966 net.cpp:165] Memory required for data: 31460720
I1127 14:16:22.388620  2966 layer_factory.hpp:77] Creating layer ReLU19
I1127 14:16:22.388631  2966 net.cpp:100] Creating Layer ReLU19
I1127 14:16:22.388700  2966 net.cpp:434] ReLU19 <- Convolution19
I1127 14:16:22.388707  2966 net.cpp:395] ReLU19 -> Convolution19 (in-place)
I1127 14:16:22.388716  2966 net.cpp:150] Setting up ReLU19
I1127 14:16:22.388816  2966 net.cpp:157] Top shape: 4 48 7 7 (9408)
I1127 14:16:22.388823  2966 net.cpp:165] Memory required for data: 31498352
I1127 14:16:22.388828  2966 layer_factory.hpp:77] Creating layer Pooling6
I1127 14:16:22.388836  2966 net.cpp:100] Creating Layer Pooling6
I1127 14:16:22.388932  2966 net.cpp:434] Pooling6 <- Pooling5_Pooling5_0_split_3
I1127 14:16:22.389032  2966 net.cpp:408] Pooling6 -> Pooling6
I1127 14:16:22.389145  2966 net.cpp:150] Setting up Pooling6
I1127 14:16:22.389154  2966 net.cpp:157] Top shape: 4 480 7 7 (94080)
I1127 14:16:22.389230  2966 net.cpp:165] Memory required for data: 31874672
I1127 14:16:22.389237  2966 layer_factory.hpp:77] Creating layer Convolution20
I1127 14:16:22.389308  2966 net.cpp:100] Creating Layer Convolution20
I1127 14:16:22.389315  2966 net.cpp:434] Convolution20 <- Pooling6
I1127 14:16:22.389324  2966 net.cpp:408] Convolution20 -> Convolution20
I1127 14:16:22.389685  2966 net.cpp:150] Setting up Convolution20
I1127 14:16:22.390151  2966 net.cpp:157] Top shape: 4 64 7 7 (12544)
I1127 14:16:22.390159  2966 net.cpp:165] Memory required for data: 31924848
I1127 14:16:22.390167  2966 layer_factory.hpp:77] Creating layer ReLU20
I1127 14:16:22.390177  2966 net.cpp:100] Creating Layer ReLU20
I1127 14:16:22.390183  2966 net.cpp:434] ReLU20 <- Convolution20
I1127 14:16:22.390189  2966 net.cpp:395] ReLU20 -> Convolution20 (in-place)
I1127 14:16:22.390198  2966 net.cpp:150] Setting up ReLU20
I1127 14:16:22.390204  2966 net.cpp:157] Top shape: 4 64 7 7 (12544)
I1127 14:16:22.390209  2966 net.cpp:165] Memory required for data: 31975024
I1127 14:16:22.390214  2966 layer_factory.hpp:77] Creating layer Concat3
I1127 14:16:22.390236  2966 net.cpp:100] Creating Layer Concat3
I1127 14:16:22.390242  2966 net.cpp:434] Concat3 <- Convolution15
I1127 14:16:22.390249  2966 net.cpp:434] Concat3 <- Convolution17
I1127 14:16:22.390255  2966 net.cpp:434] Concat3 <- Convolution19
I1127 14:16:22.390261  2966 net.cpp:434] Concat3 <- Convolution20
I1127 14:16:22.390269  2966 net.cpp:408] Concat3 -> Concat3
I1127 14:16:22.390277  2966 net.cpp:150] Setting up Concat3
I1127 14:16:22.390283  2966 net.cpp:157] Top shape: 4 512 7 7 (100352)
I1127 14:16:22.390288  2966 net.cpp:165] Memory required for data: 32376432
I1127 14:16:22.390293  2966 layer_factory.hpp:77] Creating layer Pooling7
I1127 14:16:22.390300  2966 net.cpp:100] Creating Layer Pooling7
I1127 14:16:22.390305  2966 net.cpp:434] Pooling7 <- Concat3
I1127 14:16:22.390313  2966 net.cpp:408] Pooling7 -> Pooling7
I1127 14:16:22.390322  2966 net.cpp:150] Setting up Pooling7
I1127 14:16:22.390328  2966 net.cpp:157] Top shape: 4 512 1 1 (2048)
I1127 14:16:22.390333  2966 net.cpp:165] Memory required for data: 32384624
I1127 14:16:22.390339  2966 layer_factory.hpp:77] Creating layer InnerProduct1
I1127 14:16:22.390347  2966 net.cpp:100] Creating Layer InnerProduct1
I1127 14:16:22.390352  2966 net.cpp:434] InnerProduct1 <- Pooling7
I1127 14:16:22.390359  2966 net.cpp:408] InnerProduct1 -> InnerProduct1
I1127 14:16:22.442556  2966 net.cpp:150] Setting up InnerProduct1
I1127 14:16:22.444195  2966 net.cpp:157] Top shape: 4 4096 (16384)
I1127 14:16:22.444394  2966 net.cpp:165] Memory required for data: 32450160
I1127 14:16:22.444495  2966 layer_factory.hpp:77] Creating layer ReLU21
I1127 14:16:22.444631  2966 net.cpp:100] Creating Layer ReLU21
I1127 14:16:22.444746  2966 net.cpp:434] ReLU21 <- InnerProduct1
I1127 14:16:22.444869  2966 net.cpp:395] ReLU21 -> InnerProduct1 (in-place)
I1127 14:16:22.444955  2966 net.cpp:150] Setting up ReLU21
I1127 14:16:22.445101  2966 net.cpp:157] Top shape: 4 4096 (16384)
I1127 14:16:22.445178  2966 net.cpp:165] Memory required for data: 32515696
I1127 14:16:22.445253  2966 layer_factory.hpp:77] Creating layer Dropout1
I1127 14:16:22.445402  2966 net.cpp:100] Creating Layer Dropout1
I1127 14:16:22.445497  2966 net.cpp:434] Dropout1 <- InnerProduct1
I1127 14:16:22.445580  2966 net.cpp:395] Dropout1 -> InnerProduct1 (in-place)
I1127 14:16:22.445624  2966 net.cpp:150] Setting up Dropout1
I1127 14:16:22.445703  2966 net.cpp:157] Top shape: 4 4096 (16384)
I1127 14:16:22.445888  2966 net.cpp:165] Memory required for data: 32581232
I1127 14:16:22.445967  2966 layer_factory.hpp:77] Creating layer InnerProduct2
I1127 14:16:22.446064  2966 net.cpp:100] Creating Layer InnerProduct2
I1127 14:16:22.446192  2966 net.cpp:434] InnerProduct2 <- InnerProduct1
I1127 14:16:22.446259  2966 net.cpp:408] InnerProduct2 -> InnerProduct2
I1127 14:16:22.516191  2966 net.cpp:150] Setting up InnerProduct2
I1127 14:16:22.521857  2966 net.cpp:157] Top shape: 4 1024 (4096)
I1127 14:16:22.521939  2966 net.cpp:165] Memory required for data: 32597616
I1127 14:16:22.521999  2966 layer_factory.hpp:77] Creating layer InnerProduct2_InnerProduct2_0_split
I1127 14:16:22.522056  2966 net.cpp:100] Creating Layer InnerProduct2_InnerProduct2_0_split
I1127 14:16:22.522138  2966 net.cpp:434] InnerProduct2_InnerProduct2_0_split <- InnerProduct2
I1127 14:16:22.522217  2966 net.cpp:408] InnerProduct2_InnerProduct2_0_split -> InnerProduct2_InnerProduct2_0_split_0
I1127 14:16:22.522306  2966 net.cpp:408] InnerProduct2_InnerProduct2_0_split -> InnerProduct2_InnerProduct2_0_split_1
I1127 14:16:22.522385  2966 net.cpp:150] Setting up InnerProduct2_InnerProduct2_0_split
I1127 14:16:22.522450  2966 net.cpp:157] Top shape: 4 1024 (4096)
I1127 14:16:22.522496  2966 net.cpp:157] Top shape: 4 1024 (4096)
I1127 14:16:22.522543  2966 net.cpp:165] Memory required for data: 32630384
I1127 14:16:22.522584  2966 layer_factory.hpp:77] Creating layer SoftmaxWithLoss1
I1127 14:16:22.522653  2966 net.cpp:100] Creating Layer SoftmaxWithLoss1
I1127 14:16:22.522696  2966 net.cpp:434] SoftmaxWithLoss1 <- InnerProduct2_InnerProduct2_0_split_0
I1127 14:16:22.522789  2966 net.cpp:434] SoftmaxWithLoss1 <- Data2_Data1_1_split_0
…
